program(1.0)
[buildInfo = dict<tensor<string, []>, tensor<string, []>>({{"coremlc-component-MIL", "3510.2.1"}, {"coremlc-version", "3500.32.1"}, {"coremltools-component-torch", "2.9.1"}, {"coremltools-source-dialect", "TorchScript"}, {"coremltools-version", "9.0"}})]
{
    func main<ios17>(tensor<fp32, [1, 3, 224, 224]> face_image) {
            tensor<fp32, []> face_image__scaled___y_0 = const()[name = tensor<string, []>("face_image__scaled___y_0"), val = tensor<fp32, []>(0x1.010102p-7)];
            tensor<fp32, [1, 3, 224, 224]> face_image__scaled__ = mul(x = face_image, y = face_image__scaled___y_0)[name = tensor<string, []>("face_image__scaled__")];
            tensor<fp32, [1, 3, 1, 1]> face_image__biased___y_0 = const()[name = tensor<string, []>("face_image__biased___y_0"), val = tensor<fp32, [1, 3, 1, 1]>([[[[-0x1p+0]], [[-0x1p+0]], [[-0x1p+0]]]])];
            tensor<fp32, [1, 3, 224, 224]> face_image__biased__ = add(x = face_image__scaled__, y = face_image__biased___y_0)[name = tensor<string, []>("face_image__biased__")];
            tensor<int32, []> var_7 = const()[name = tensor<string, []>("op_7"), val = tensor<int32, []>(1)];
            tensor<int32, [2]> var_31 = const()[name = tensor<string, []>("op_31"), val = tensor<int32, [2]>([16, 16])];
            tensor<int32, [2]> var_32 = const()[name = tensor<string, []>("op_32"), val = tensor<int32, [2]>([1, 1])];
            tensor<string, []> patch_embeds_pad_type_0 = const()[name = tensor<string, []>("patch_embeds_pad_type_0"), val = tensor<string, []>("valid")];
            tensor<int32, [4]> patch_embeds_pad_0 = const()[name = tensor<string, []>("patch_embeds_pad_0"), val = tensor<int32, [4]>([0, 0, 0, 0])];
            tensor<string, []> face_image_to_fp16_dtype_0 = const()[name = tensor<string, []>("face_image_to_fp16_dtype_0"), val = tensor<string, []>("fp16")];
            tensor<fp16, [768, 3, 16, 16]> model_vision_model_embeddings_patch_embedding_weight_to_fp16 = const()[name = tensor<string, []>("model_vision_model_embeddings_patch_embedding_weight_to_fp16"), val = tensor<fp16, [768, 3, 16, 16]>(BLOBFILE(path = tensor<string, []>("@model_path/weights/weight.bin"), offset = tensor<uint64, []>(64)))];
            tensor<fp16, [768]> model_vision_model_embeddings_patch_embedding_bias_to_fp16 = const()[name = tensor<string, []>("model_vision_model_embeddings_patch_embedding_bias_to_fp16"), val = tensor<fp16, [768]>(BLOBFILE(path = tensor<string, []>("@model_path/weights/weight.bin"), offset = tensor<uint64, []>(1179776)))];
            tensor<fp16, [1, 3, 224, 224]> face_image_to_fp16 = cast(dtype = face_image_to_fp16_dtype_0, x = face_image__biased__)[name = tensor<string, []>("cast_51")];
            tensor<fp16, [1, 768, 14, 14]> patch_embeds_cast_fp16 = conv(bias = model_vision_model_embeddings_patch_embedding_bias_to_fp16, dilations = var_32, groups = var_7, pad = patch_embeds_pad_0, pad_type = patch_embeds_pad_type_0, strides = var_31, weight = model_vision_model_embeddings_patch_embedding_weight_to_fp16, x = face_image_to_fp16)[name = tensor<string, []>("patch_embeds_cast_fp16")];
            tensor<int32, [3]> concat_0 = const()[name = tensor<string, []>("concat_0"), val = tensor<int32, [3]>([1, 768, 196])];
            tensor<fp16, [1, 768, 196]> var_34_cast_fp16 = reshape(shape = concat_0, x = patch_embeds_cast_fp16)[name = tensor<string, []>("op_34_cast_fp16")];
            tensor<int32, [3]> embeddings_1_perm_0 = const()[name = tensor<string, []>("embeddings_1_perm_0"), val = tensor<int32, [3]>([0, 2, 1])];
            tensor<fp16, [1, 196, 768]> var_37_to_fp16 = const()[name = tensor<string, []>("op_37_to_fp16"), val = tensor<fp16, [1, 196, 768]>(BLOBFILE(path = tensor<string, []>("@model_path/weights/weight.bin"), offset = tensor<uint64, []>(1181376)))];
            tensor<fp16, [1, 196, 768]> embeddings_1_cast_fp16 = transpose(perm = embeddings_1_perm_0, x = var_34_cast_fp16)[name = tensor<string, []>("transpose_120")];
            tensor<fp16, [1, 196, 768]> input_5_cast_fp16 = add(x = embeddings_1_cast_fp16, y = var_37_to_fp16)[name = tensor<string, []>("input_5_cast_fp16")];
            tensor<int32, [1]> hidden_states_1_axes_0 = const()[name = tensor<string, []>("hidden_states_1_axes_0"), val = tensor<int32, [1]>([-1])];
            tensor<fp16, [768]> model_vision_model_encoder_layers_0_layer_norm1_weight_to_fp16 = const()[name = tensor<string, []>("model_vision_model_encoder_layers_0_layer_norm1_weight_to_fp16"), val = tensor<fp16, [768]>(BLOBFILE(path = tensor<string, []>("@model_path/weights/weight.bin"), offset = tensor<uint64, []>(1482496)))];
            tensor<fp16, [768]> model_vision_model_encoder_layers_0_layer_norm1_bias_to_fp16 = const()[name = tensor<string, []>("model_vision_model_encoder_layers_0_layer_norm1_bias_to_fp16"), val = tensor<fp16, [768]>(BLOBFILE(path = tensor<string, []>("@model_path/weights/weight.bin"), offset = tensor<uint64, []>(1484096)))];
            tensor<fp16, []> var_12_to_fp16 = const()[name = tensor<string, []>("op_12_to_fp16"), val = tensor<fp16, []>(0x1.1p-20)];
            tensor<fp16, [1, 196, 768]> hidden_states_1_cast_fp16 = layer_norm(axes = hidden_states_1_axes_0, beta = model_vision_model_encoder_layers_0_layer_norm1_bias_to_fp16, epsilon = var_12_to_fp16, gamma = model_vision_model_encoder_layers_0_layer_norm1_weight_to_fp16, x = input_5_cast_fp16)[name = tensor<string, []>("hidden_states_1_cast_fp16")];
            tensor<fp16, [768, 768]> model_vision_model_encoder_layers_0_self_attn_q_proj_weight_to_fp16 = const()[name = tensor<string, []>("model_vision_model_encoder_layers_0_self_attn_q_proj_weight_to_fp16"), val = tensor<fp16, [768, 768]>(BLOBFILE(path = tensor<string, []>("@model_path/weights/weight.bin"), offset = tensor<uint64, []>(1485696)))];
            tensor<fp16, [768]> model_vision_model_encoder_layers_0_self_attn_q_proj_bias_to_fp16 = const()[name = tensor<string, []>("model_vision_model_encoder_layers_0_self_attn_q_proj_bias_to_fp16"), val = tensor<fp16, [768]>(BLOBFILE(path = tensor<string, []>("@model_path/weights/weight.bin"), offset = tensor<uint64, []>(2665408)))];
            tensor<fp16, [1, 196, 768]> linear_0_cast_fp16 = linear(bias = model_vision_model_encoder_layers_0_self_attn_q_proj_bias_to_fp16, weight = model_vision_model_encoder_layers_0_self_attn_q_proj_weight_to_fp16, x = hidden_states_1_cast_fp16)[name = tensor<string, []>("linear_0_cast_fp16")];
            tensor<fp16, [768, 768]> model_vision_model_encoder_layers_0_self_attn_k_proj_weight_to_fp16 = const()[name = tensor<string, []>("model_vision_model_encoder_layers_0_self_attn_k_proj_weight_to_fp16"), val = tensor<fp16, [768, 768]>(BLOBFILE(path = tensor<string, []>("@model_path/weights/weight.bin"), offset = tensor<uint64, []>(2667008)))];
            tensor<fp16, [768]> model_vision_model_encoder_layers_0_self_attn_k_proj_bias_to_fp16 = const()[name = tensor<string, []>("model_vision_model_encoder_layers_0_self_attn_k_proj_bias_to_fp16"), val = tensor<fp16, [768]>(BLOBFILE(path = tensor<string, []>("@model_path/weights/weight.bin"), offset = tensor<uint64, []>(3846720)))];
            tensor<fp16, [1, 196, 768]> linear_1_cast_fp16 = linear(bias = model_vision_model_encoder_layers_0_self_attn_k_proj_bias_to_fp16, weight = model_vision_model_encoder_layers_0_self_attn_k_proj_weight_to_fp16, x = hidden_states_1_cast_fp16)[name = tensor<string, []>("linear_1_cast_fp16")];
            tensor<fp16, [768, 768]> model_vision_model_encoder_layers_0_self_attn_v_proj_weight_to_fp16 = const()[name = tensor<string, []>("model_vision_model_encoder_layers_0_self_attn_v_proj_weight_to_fp16"), val = tensor<fp16, [768, 768]>(BLOBFILE(path = tensor<string, []>("@model_path/weights/weight.bin"), offset = tensor<uint64, []>(3848320)))];
            tensor<fp16, [768]> model_vision_model_encoder_layers_0_self_attn_v_proj_bias_to_fp16 = const()[name = tensor<string, []>("model_vision_model_encoder_layers_0_self_attn_v_proj_bias_to_fp16"), val = tensor<fp16, [768]>(BLOBFILE(path = tensor<string, []>("@model_path/weights/weight.bin"), offset = tensor<uint64, []>(5028032)))];
            tensor<fp16, [1, 196, 768]> linear_2_cast_fp16 = linear(bias = model_vision_model_encoder_layers_0_self_attn_v_proj_bias_to_fp16, weight = model_vision_model_encoder_layers_0_self_attn_v_proj_weight_to_fp16, x = hidden_states_1_cast_fp16)[name = tensor<string, []>("linear_2_cast_fp16")];
            tensor<int32, [4]> var_87 = const()[name = tensor<string, []>("op_87"), val = tensor<int32, [4]>([1, 196, 12, 64])];
            tensor<fp16, [1, 196, 12, 64]> var_88_cast_fp16 = reshape(shape = var_87, x = linear_0_cast_fp16)[name = tensor<string, []>("op_88_cast_fp16")];
            tensor<int32, [4]> var_90 = const()[name = tensor<string, []>("op_90"), val = tensor<int32, [4]>([1, 196, 12, 64])];
            tensor<fp16, [1, 196, 12, 64]> var_91_cast_fp16 = reshape(shape = var_90, x = linear_1_cast_fp16)[name = tensor<string, []>("op_91_cast_fp16")];
            tensor<int32, [4]> var_93 = const()[name = tensor<string, []>("op_93"), val = tensor<int32, [4]>([1, 196, 12, 64])];
            tensor<fp16, [1, 196, 12, 64]> var_94_cast_fp16 = reshape(shape = var_93, x = linear_2_cast_fp16)[name = tensor<string, []>("op_94_cast_fp16")];
            tensor<int32, [4]> value_1_perm_0 = const()[name = tensor<string, []>("value_1_perm_0"), val = tensor<int32, [4]>([0, 2, 1, 3])];
            tensor<fp16, []> var_14_to_fp16 = const()[name = tensor<string, []>("op_14_to_fp16"), val = tensor<fp16, []>(0x1p-3)];
            tensor<fp16, [1, 196, 12, 64]> mul_0_cast_fp16 = mul(x = var_88_cast_fp16, y = var_14_to_fp16)[name = tensor<string, []>("mul_0_cast_fp16")];
            tensor<bool, []> matmul_0_transpose_y_0 = const()[name = tensor<string, []>("matmul_0_transpose_y_0"), val = tensor<bool, []>(true)];
            tensor<bool, []> matmul_0_transpose_x_0 = const()[name = tensor<string, []>("matmul_0_transpose_x_0"), val = tensor<bool, []>(false)];
            tensor<int32, [4]> transpose_48_perm_0 = const()[name = tensor<string, []>("transpose_48_perm_0"), val = tensor<int32, [4]>([0, 2, -3, -1])];
            tensor<int32, [4]> transpose_49_perm_0 = const()[name = tensor<string, []>("transpose_49_perm_0"), val = tensor<int32, [4]>([0, 2, -3, -1])];
            tensor<fp16, [1, 12, 196, 64]> transpose_49 = transpose(perm = transpose_49_perm_0, x = var_91_cast_fp16)[name = tensor<string, []>("transpose_117")];
            tensor<fp16, [1, 12, 196, 64]> transpose_48 = transpose(perm = transpose_48_perm_0, x = mul_0_cast_fp16)[name = tensor<string, []>("transpose_118")];
            tensor<fp16, [1, 12, 196, 196]> matmul_0_cast_fp16 = matmul(transpose_x = matmul_0_transpose_x_0, transpose_y = matmul_0_transpose_y_0, x = transpose_48, y = transpose_49)[name = tensor<string, []>("matmul_0_cast_fp16")];
            tensor<int32, []> softmax_0_axis_0 = const()[name = tensor<string, []>("softmax_0_axis_0"), val = tensor<int32, []>(-1)];
            tensor<fp16, [1, 12, 196, 196]> softmax_0_cast_fp16 = softmax(axis = softmax_0_axis_0, x = matmul_0_cast_fp16)[name = tensor<string, []>("softmax_0_cast_fp16")];
            tensor<bool, []> attn_output_1_transpose_x_0 = const()[name = tensor<string, []>("attn_output_1_transpose_x_0"), val = tensor<bool, []>(false)];
            tensor<bool, []> attn_output_1_transpose_y_0 = const()[name = tensor<string, []>("attn_output_1_transpose_y_0"), val = tensor<bool, []>(false)];
            tensor<fp16, [1, 12, 196, 64]> value_1_cast_fp16 = transpose(perm = value_1_perm_0, x = var_94_cast_fp16)[name = tensor<string, []>("transpose_119")];
            tensor<fp16, [1, 12, 196, 64]> attn_output_1_cast_fp16 = matmul(transpose_x = attn_output_1_transpose_x_0, transpose_y = attn_output_1_transpose_y_0, x = softmax_0_cast_fp16, y = value_1_cast_fp16)[name = tensor<string, []>("attn_output_1_cast_fp16")];
            tensor<int32, [4]> var_97_perm_0 = const()[name = tensor<string, []>("op_97_perm_0"), val = tensor<int32, [4]>([0, 2, 1, 3])];
            tensor<int32, [3]> var_99 = const()[name = tensor<string, []>("op_99"), val = tensor<int32, [3]>([1, 196, 768])];
            tensor<fp16, [1, 196, 12, 64]> var_97_cast_fp16 = transpose(perm = var_97_perm_0, x = attn_output_1_cast_fp16)[name = tensor<string, []>("transpose_116")];
            tensor<fp16, [1, 196, 768]> var_100_cast_fp16 = reshape(shape = var_99, x = var_97_cast_fp16)[name = tensor<string, []>("op_100_cast_fp16")];
            tensor<fp16, [768, 768]> model_vision_model_encoder_layers_0_self_attn_out_proj_weight_to_fp16 = const()[name = tensor<string, []>("model_vision_model_encoder_layers_0_self_attn_out_proj_weight_to_fp16"), val = tensor<fp16, [768, 768]>(BLOBFILE(path = tensor<string, []>("@model_path/weights/weight.bin"), offset = tensor<uint64, []>(5029632)))];
            tensor<fp16, [768]> model_vision_model_encoder_layers_0_self_attn_out_proj_bias_to_fp16 = const()[name = tensor<string, []>("model_vision_model_encoder_layers_0_self_attn_out_proj_bias_to_fp16"), val = tensor<fp16, [768]>(BLOBFILE(path = tensor<string, []>("@model_path/weights/weight.bin"), offset = tensor<uint64, []>(6209344)))];
            tensor<fp16, [1, 196, 768]> linear_3_cast_fp16 = linear(bias = model_vision_model_encoder_layers_0_self_attn_out_proj_bias_to_fp16, weight = model_vision_model_encoder_layers_0_self_attn_out_proj_weight_to_fp16, x = var_100_cast_fp16)[name = tensor<string, []>("linear_3_cast_fp16")];
            tensor<fp16, [1, 196, 768]> input_9_cast_fp16 = add(x = input_5_cast_fp16, y = linear_3_cast_fp16)[name = tensor<string, []>("input_9_cast_fp16")];
            tensor<int32, [1]> input_11_axes_0 = const()[name = tensor<string, []>("input_11_axes_0"), val = tensor<int32, [1]>([-1])];
            tensor<fp16, [768]> model_vision_model_encoder_layers_0_layer_norm2_weight_to_fp16 = const()[name = tensor<string, []>("model_vision_model_encoder_layers_0_layer_norm2_weight_to_fp16"), val = tensor<fp16, [768]>(BLOBFILE(path = tensor<string, []>("@model_path/weights/weight.bin"), offset = tensor<uint64, []>(6210944)))];
            tensor<fp16, [768]> model_vision_model_encoder_layers_0_layer_norm2_bias_to_fp16 = const()[name = tensor<string, []>("model_vision_model_encoder_layers_0_layer_norm2_bias_to_fp16"), val = tensor<fp16, [768]>(BLOBFILE(path = tensor<string, []>("@model_path/weights/weight.bin"), offset = tensor<uint64, []>(6212544)))];
            tensor<fp16, [1, 196, 768]> input_11_cast_fp16 = layer_norm(axes = input_11_axes_0, beta = model_vision_model_encoder_layers_0_layer_norm2_bias_to_fp16, epsilon = var_12_to_fp16, gamma = model_vision_model_encoder_layers_0_layer_norm2_weight_to_fp16, x = input_9_cast_fp16)[name = tensor<string, []>("input_11_cast_fp16")];
            tensor<fp16, [3072, 768]> model_vision_model_encoder_layers_0_mlp_fc1_weight_to_fp16 = const()[name = tensor<string, []>("model_vision_model_encoder_layers_0_mlp_fc1_weight_to_fp16"), val = tensor<fp16, [3072, 768]>(BLOBFILE(path = tensor<string, []>("@model_path/weights/weight.bin"), offset = tensor<uint64, []>(6214144)))];
            tensor<fp16, [3072]> model_vision_model_encoder_layers_0_mlp_fc1_bias_to_fp16 = const()[name = tensor<string, []>("model_vision_model_encoder_layers_0_mlp_fc1_bias_to_fp16"), val = tensor<fp16, [3072]>(BLOBFILE(path = tensor<string, []>("@model_path/weights/weight.bin"), offset = tensor<uint64, []>(10932800)))];
            tensor<fp16, [1, 196, 3072]> linear_4_cast_fp16 = linear(bias = model_vision_model_encoder_layers_0_mlp_fc1_bias_to_fp16, weight = model_vision_model_encoder_layers_0_mlp_fc1_weight_to_fp16, x = input_11_cast_fp16)[name = tensor<string, []>("linear_4_cast_fp16")];
            tensor<string, []> input_15_mode_0 = const()[name = tensor<string, []>("input_15_mode_0"), val = tensor<string, []>("TANH_APPROXIMATION")];
            tensor<fp16, [1, 196, 3072]> input_15_cast_fp16 = gelu(mode = input_15_mode_0, x = linear_4_cast_fp16)[name = tensor<string, []>("input_15_cast_fp16")];
            tensor<fp16, [768, 3072]> model_vision_model_encoder_layers_0_mlp_fc2_weight_to_fp16 = const()[name = tensor<string, []>("model_vision_model_encoder_layers_0_mlp_fc2_weight_to_fp16"), val = tensor<fp16, [768, 3072]>(BLOBFILE(path = tensor<string, []>("@model_path/weights/weight.bin"), offset = tensor<uint64, []>(10939008)))];
            tensor<fp16, [768]> model_vision_model_encoder_layers_0_mlp_fc2_bias_to_fp16 = const()[name = tensor<string, []>("model_vision_model_encoder_layers_0_mlp_fc2_bias_to_fp16"), val = tensor<fp16, [768]>(BLOBFILE(path = tensor<string, []>("@model_path/weights/weight.bin"), offset = tensor<uint64, []>(15657664)))];
            tensor<fp16, [1, 196, 768]> linear_5_cast_fp16 = linear(bias = model_vision_model_encoder_layers_0_mlp_fc2_bias_to_fp16, weight = model_vision_model_encoder_layers_0_mlp_fc2_weight_to_fp16, x = input_15_cast_fp16)[name = tensor<string, []>("linear_5_cast_fp16")];
            tensor<fp16, [1, 196, 768]> input_17_cast_fp16 = add(x = input_9_cast_fp16, y = linear_5_cast_fp16)[name = tensor<string, []>("input_17_cast_fp16")];
            tensor<int32, [1]> hidden_states_7_axes_0 = const()[name = tensor<string, []>("hidden_states_7_axes_0"), val = tensor<int32, [1]>([-1])];
            tensor<fp16, [768]> model_vision_model_encoder_layers_1_layer_norm1_weight_to_fp16 = const()[name = tensor<string, []>("model_vision_model_encoder_layers_1_layer_norm1_weight_to_fp16"), val = tensor<fp16, [768]>(BLOBFILE(path = tensor<string, []>("@model_path/weights/weight.bin"), offset = tensor<uint64, []>(15659264)))];
            tensor<fp16, [768]> model_vision_model_encoder_layers_1_layer_norm1_bias_to_fp16 = const()[name = tensor<string, []>("model_vision_model_encoder_layers_1_layer_norm1_bias_to_fp16"), val = tensor<fp16, [768]>(BLOBFILE(path = tensor<string, []>("@model_path/weights/weight.bin"), offset = tensor<uint64, []>(15660864)))];
            tensor<fp16, [1, 196, 768]> hidden_states_7_cast_fp16 = layer_norm(axes = hidden_states_7_axes_0, beta = model_vision_model_encoder_layers_1_layer_norm1_bias_to_fp16, epsilon = var_12_to_fp16, gamma = model_vision_model_encoder_layers_1_layer_norm1_weight_to_fp16, x = input_17_cast_fp16)[name = tensor<string, []>("hidden_states_7_cast_fp16")];
            tensor<fp16, [768, 768]> model_vision_model_encoder_layers_1_self_attn_q_proj_weight_to_fp16 = const()[name = tensor<string, []>("model_vision_model_encoder_layers_1_self_attn_q_proj_weight_to_fp16"), val = tensor<fp16, [768, 768]>(BLOBFILE(path = tensor<string, []>("@model_path/weights/weight.bin"), offset = tensor<uint64, []>(15662464)))];
            tensor<fp16, [768]> model_vision_model_encoder_layers_1_self_attn_q_proj_bias_to_fp16 = const()[name = tensor<string, []>("model_vision_model_encoder_layers_1_self_attn_q_proj_bias_to_fp16"), val = tensor<fp16, [768]>(BLOBFILE(path = tensor<string, []>("@model_path/weights/weight.bin"), offset = tensor<uint64, []>(16842176)))];
            tensor<fp16, [1, 196, 768]> linear_6_cast_fp16 = linear(bias = model_vision_model_encoder_layers_1_self_attn_q_proj_bias_to_fp16, weight = model_vision_model_encoder_layers_1_self_attn_q_proj_weight_to_fp16, x = hidden_states_7_cast_fp16)[name = tensor<string, []>("linear_6_cast_fp16")];
            tensor<fp16, [768, 768]> model_vision_model_encoder_layers_1_self_attn_k_proj_weight_to_fp16 = const()[name = tensor<string, []>("model_vision_model_encoder_layers_1_self_attn_k_proj_weight_to_fp16"), val = tensor<fp16, [768, 768]>(BLOBFILE(path = tensor<string, []>("@model_path/weights/weight.bin"), offset = tensor<uint64, []>(16843776)))];
            tensor<fp16, [768]> model_vision_model_encoder_layers_1_self_attn_k_proj_bias_to_fp16 = const()[name = tensor<string, []>("model_vision_model_encoder_layers_1_self_attn_k_proj_bias_to_fp16"), val = tensor<fp16, [768]>(BLOBFILE(path = tensor<string, []>("@model_path/weights/weight.bin"), offset = tensor<uint64, []>(18023488)))];
            tensor<fp16, [1, 196, 768]> linear_7_cast_fp16 = linear(bias = model_vision_model_encoder_layers_1_self_attn_k_proj_bias_to_fp16, weight = model_vision_model_encoder_layers_1_self_attn_k_proj_weight_to_fp16, x = hidden_states_7_cast_fp16)[name = tensor<string, []>("linear_7_cast_fp16")];
            tensor<fp16, [768, 768]> model_vision_model_encoder_layers_1_self_attn_v_proj_weight_to_fp16 = const()[name = tensor<string, []>("model_vision_model_encoder_layers_1_self_attn_v_proj_weight_to_fp16"), val = tensor<fp16, [768, 768]>(BLOBFILE(path = tensor<string, []>("@model_path/weights/weight.bin"), offset = tensor<uint64, []>(18025088)))];
            tensor<fp16, [768]> model_vision_model_encoder_layers_1_self_attn_v_proj_bias_to_fp16 = const()[name = tensor<string, []>("model_vision_model_encoder_layers_1_self_attn_v_proj_bias_to_fp16"), val = tensor<fp16, [768]>(BLOBFILE(path = tensor<string, []>("@model_path/weights/weight.bin"), offset = tensor<uint64, []>(19204800)))];
            tensor<fp16, [1, 196, 768]> linear_8_cast_fp16 = linear(bias = model_vision_model_encoder_layers_1_self_attn_v_proj_bias_to_fp16, weight = model_vision_model_encoder_layers_1_self_attn_v_proj_weight_to_fp16, x = hidden_states_7_cast_fp16)[name = tensor<string, []>("linear_8_cast_fp16")];
            tensor<int32, [4]> var_144 = const()[name = tensor<string, []>("op_144"), val = tensor<int32, [4]>([1, 196, 12, 64])];
            tensor<fp16, [1, 196, 12, 64]> var_145_cast_fp16 = reshape(shape = var_144, x = linear_6_cast_fp16)[name = tensor<string, []>("op_145_cast_fp16")];
            tensor<int32, [4]> var_147 = const()[name = tensor<string, []>("op_147"), val = tensor<int32, [4]>([1, 196, 12, 64])];
            tensor<fp16, [1, 196, 12, 64]> var_148_cast_fp16 = reshape(shape = var_147, x = linear_7_cast_fp16)[name = tensor<string, []>("op_148_cast_fp16")];
            tensor<int32, [4]> var_150 = const()[name = tensor<string, []>("op_150"), val = tensor<int32, [4]>([1, 196, 12, 64])];
            tensor<fp16, [1, 196, 12, 64]> var_151_cast_fp16 = reshape(shape = var_150, x = linear_8_cast_fp16)[name = tensor<string, []>("op_151_cast_fp16")];
            tensor<int32, [4]> value_3_perm_0 = const()[name = tensor<string, []>("value_3_perm_0"), val = tensor<int32, [4]>([0, 2, 1, 3])];
            tensor<fp16, [1, 196, 12, 64]> mul_1_cast_fp16 = mul(x = var_145_cast_fp16, y = var_14_to_fp16)[name = tensor<string, []>("mul_1_cast_fp16")];
            tensor<bool, []> matmul_1_transpose_y_0 = const()[name = tensor<string, []>("matmul_1_transpose_y_0"), val = tensor<bool, []>(true)];
            tensor<bool, []> matmul_1_transpose_x_0 = const()[name = tensor<string, []>("matmul_1_transpose_x_0"), val = tensor<bool, []>(false)];
            tensor<int32, [4]> transpose_50_perm_0 = const()[name = tensor<string, []>("transpose_50_perm_0"), val = tensor<int32, [4]>([0, 2, -3, -1])];
            tensor<int32, [4]> transpose_51_perm_0 = const()[name = tensor<string, []>("transpose_51_perm_0"), val = tensor<int32, [4]>([0, 2, -3, -1])];
            tensor<fp16, [1, 12, 196, 64]> transpose_51 = transpose(perm = transpose_51_perm_0, x = var_148_cast_fp16)[name = tensor<string, []>("transpose_113")];
            tensor<fp16, [1, 12, 196, 64]> transpose_50 = transpose(perm = transpose_50_perm_0, x = mul_1_cast_fp16)[name = tensor<string, []>("transpose_114")];
            tensor<fp16, [1, 12, 196, 196]> matmul_1_cast_fp16 = matmul(transpose_x = matmul_1_transpose_x_0, transpose_y = matmul_1_transpose_y_0, x = transpose_50, y = transpose_51)[name = tensor<string, []>("matmul_1_cast_fp16")];
            tensor<int32, []> softmax_1_axis_0 = const()[name = tensor<string, []>("softmax_1_axis_0"), val = tensor<int32, []>(-1)];
            tensor<fp16, [1, 12, 196, 196]> softmax_1_cast_fp16 = softmax(axis = softmax_1_axis_0, x = matmul_1_cast_fp16)[name = tensor<string, []>("softmax_1_cast_fp16")];
            tensor<bool, []> attn_output_5_transpose_x_0 = const()[name = tensor<string, []>("attn_output_5_transpose_x_0"), val = tensor<bool, []>(false)];
            tensor<bool, []> attn_output_5_transpose_y_0 = const()[name = tensor<string, []>("attn_output_5_transpose_y_0"), val = tensor<bool, []>(false)];
            tensor<fp16, [1, 12, 196, 64]> value_3_cast_fp16 = transpose(perm = value_3_perm_0, x = var_151_cast_fp16)[name = tensor<string, []>("transpose_115")];
            tensor<fp16, [1, 12, 196, 64]> attn_output_5_cast_fp16 = matmul(transpose_x = attn_output_5_transpose_x_0, transpose_y = attn_output_5_transpose_y_0, x = softmax_1_cast_fp16, y = value_3_cast_fp16)[name = tensor<string, []>("attn_output_5_cast_fp16")];
            tensor<int32, [4]> var_154_perm_0 = const()[name = tensor<string, []>("op_154_perm_0"), val = tensor<int32, [4]>([0, 2, 1, 3])];
            tensor<int32, [3]> var_156 = const()[name = tensor<string, []>("op_156"), val = tensor<int32, [3]>([1, 196, 768])];
            tensor<fp16, [1, 196, 12, 64]> var_154_cast_fp16 = transpose(perm = var_154_perm_0, x = attn_output_5_cast_fp16)[name = tensor<string, []>("transpose_112")];
            tensor<fp16, [1, 196, 768]> var_157_cast_fp16 = reshape(shape = var_156, x = var_154_cast_fp16)[name = tensor<string, []>("op_157_cast_fp16")];
            tensor<fp16, [768, 768]> model_vision_model_encoder_layers_1_self_attn_out_proj_weight_to_fp16 = const()[name = tensor<string, []>("model_vision_model_encoder_layers_1_self_attn_out_proj_weight_to_fp16"), val = tensor<fp16, [768, 768]>(BLOBFILE(path = tensor<string, []>("@model_path/weights/weight.bin"), offset = tensor<uint64, []>(19206400)))];
            tensor<fp16, [768]> model_vision_model_encoder_layers_1_self_attn_out_proj_bias_to_fp16 = const()[name = tensor<string, []>("model_vision_model_encoder_layers_1_self_attn_out_proj_bias_to_fp16"), val = tensor<fp16, [768]>(BLOBFILE(path = tensor<string, []>("@model_path/weights/weight.bin"), offset = tensor<uint64, []>(20386112)))];
            tensor<fp16, [1, 196, 768]> linear_9_cast_fp16 = linear(bias = model_vision_model_encoder_layers_1_self_attn_out_proj_bias_to_fp16, weight = model_vision_model_encoder_layers_1_self_attn_out_proj_weight_to_fp16, x = var_157_cast_fp16)[name = tensor<string, []>("linear_9_cast_fp16")];
            tensor<fp16, [1, 196, 768]> input_21_cast_fp16 = add(x = input_17_cast_fp16, y = linear_9_cast_fp16)[name = tensor<string, []>("input_21_cast_fp16")];
            tensor<int32, [1]> input_23_axes_0 = const()[name = tensor<string, []>("input_23_axes_0"), val = tensor<int32, [1]>([-1])];
            tensor<fp16, [768]> model_vision_model_encoder_layers_1_layer_norm2_weight_to_fp16 = const()[name = tensor<string, []>("model_vision_model_encoder_layers_1_layer_norm2_weight_to_fp16"), val = tensor<fp16, [768]>(BLOBFILE(path = tensor<string, []>("@model_path/weights/weight.bin"), offset = tensor<uint64, []>(20387712)))];
            tensor<fp16, [768]> model_vision_model_encoder_layers_1_layer_norm2_bias_to_fp16 = const()[name = tensor<string, []>("model_vision_model_encoder_layers_1_layer_norm2_bias_to_fp16"), val = tensor<fp16, [768]>(BLOBFILE(path = tensor<string, []>("@model_path/weights/weight.bin"), offset = tensor<uint64, []>(20389312)))];
            tensor<fp16, [1, 196, 768]> input_23_cast_fp16 = layer_norm(axes = input_23_axes_0, beta = model_vision_model_encoder_layers_1_layer_norm2_bias_to_fp16, epsilon = var_12_to_fp16, gamma = model_vision_model_encoder_layers_1_layer_norm2_weight_to_fp16, x = input_21_cast_fp16)[name = tensor<string, []>("input_23_cast_fp16")];
            tensor<fp16, [3072, 768]> model_vision_model_encoder_layers_1_mlp_fc1_weight_to_fp16 = const()[name = tensor<string, []>("model_vision_model_encoder_layers_1_mlp_fc1_weight_to_fp16"), val = tensor<fp16, [3072, 768]>(BLOBFILE(path = tensor<string, []>("@model_path/weights/weight.bin"), offset = tensor<uint64, []>(20390912)))];
            tensor<fp16, [3072]> model_vision_model_encoder_layers_1_mlp_fc1_bias_to_fp16 = const()[name = tensor<string, []>("model_vision_model_encoder_layers_1_mlp_fc1_bias_to_fp16"), val = tensor<fp16, [3072]>(BLOBFILE(path = tensor<string, []>("@model_path/weights/weight.bin"), offset = tensor<uint64, []>(25109568)))];
            tensor<fp16, [1, 196, 3072]> linear_10_cast_fp16 = linear(bias = model_vision_model_encoder_layers_1_mlp_fc1_bias_to_fp16, weight = model_vision_model_encoder_layers_1_mlp_fc1_weight_to_fp16, x = input_23_cast_fp16)[name = tensor<string, []>("linear_10_cast_fp16")];
            tensor<string, []> input_27_mode_0 = const()[name = tensor<string, []>("input_27_mode_0"), val = tensor<string, []>("TANH_APPROXIMATION")];
            tensor<fp16, [1, 196, 3072]> input_27_cast_fp16 = gelu(mode = input_27_mode_0, x = linear_10_cast_fp16)[name = tensor<string, []>("input_27_cast_fp16")];
            tensor<fp16, [768, 3072]> model_vision_model_encoder_layers_1_mlp_fc2_weight_to_fp16 = const()[name = tensor<string, []>("model_vision_model_encoder_layers_1_mlp_fc2_weight_to_fp16"), val = tensor<fp16, [768, 3072]>(BLOBFILE(path = tensor<string, []>("@model_path/weights/weight.bin"), offset = tensor<uint64, []>(25115776)))];
            tensor<fp16, [768]> model_vision_model_encoder_layers_1_mlp_fc2_bias_to_fp16 = const()[name = tensor<string, []>("model_vision_model_encoder_layers_1_mlp_fc2_bias_to_fp16"), val = tensor<fp16, [768]>(BLOBFILE(path = tensor<string, []>("@model_path/weights/weight.bin"), offset = tensor<uint64, []>(29834432)))];
            tensor<fp16, [1, 196, 768]> linear_11_cast_fp16 = linear(bias = model_vision_model_encoder_layers_1_mlp_fc2_bias_to_fp16, weight = model_vision_model_encoder_layers_1_mlp_fc2_weight_to_fp16, x = input_27_cast_fp16)[name = tensor<string, []>("linear_11_cast_fp16")];
            tensor<fp16, [1, 196, 768]> input_29_cast_fp16 = add(x = input_21_cast_fp16, y = linear_11_cast_fp16)[name = tensor<string, []>("input_29_cast_fp16")];
            tensor<int32, [1]> hidden_states_13_axes_0 = const()[name = tensor<string, []>("hidden_states_13_axes_0"), val = tensor<int32, [1]>([-1])];
            tensor<fp16, [768]> model_vision_model_encoder_layers_2_layer_norm1_weight_to_fp16 = const()[name = tensor<string, []>("model_vision_model_encoder_layers_2_layer_norm1_weight_to_fp16"), val = tensor<fp16, [768]>(BLOBFILE(path = tensor<string, []>("@model_path/weights/weight.bin"), offset = tensor<uint64, []>(29836032)))];
            tensor<fp16, [768]> model_vision_model_encoder_layers_2_layer_norm1_bias_to_fp16 = const()[name = tensor<string, []>("model_vision_model_encoder_layers_2_layer_norm1_bias_to_fp16"), val = tensor<fp16, [768]>(BLOBFILE(path = tensor<string, []>("@model_path/weights/weight.bin"), offset = tensor<uint64, []>(29837632)))];
            tensor<fp16, [1, 196, 768]> hidden_states_13_cast_fp16 = layer_norm(axes = hidden_states_13_axes_0, beta = model_vision_model_encoder_layers_2_layer_norm1_bias_to_fp16, epsilon = var_12_to_fp16, gamma = model_vision_model_encoder_layers_2_layer_norm1_weight_to_fp16, x = input_29_cast_fp16)[name = tensor<string, []>("hidden_states_13_cast_fp16")];
            tensor<fp16, [768, 768]> model_vision_model_encoder_layers_2_self_attn_q_proj_weight_to_fp16 = const()[name = tensor<string, []>("model_vision_model_encoder_layers_2_self_attn_q_proj_weight_to_fp16"), val = tensor<fp16, [768, 768]>(BLOBFILE(path = tensor<string, []>("@model_path/weights/weight.bin"), offset = tensor<uint64, []>(29839232)))];
            tensor<fp16, [768]> model_vision_model_encoder_layers_2_self_attn_q_proj_bias_to_fp16 = const()[name = tensor<string, []>("model_vision_model_encoder_layers_2_self_attn_q_proj_bias_to_fp16"), val = tensor<fp16, [768]>(BLOBFILE(path = tensor<string, []>("@model_path/weights/weight.bin"), offset = tensor<uint64, []>(31018944)))];
            tensor<fp16, [1, 196, 768]> linear_12_cast_fp16 = linear(bias = model_vision_model_encoder_layers_2_self_attn_q_proj_bias_to_fp16, weight = model_vision_model_encoder_layers_2_self_attn_q_proj_weight_to_fp16, x = hidden_states_13_cast_fp16)[name = tensor<string, []>("linear_12_cast_fp16")];
            tensor<fp16, [768, 768]> model_vision_model_encoder_layers_2_self_attn_k_proj_weight_to_fp16 = const()[name = tensor<string, []>("model_vision_model_encoder_layers_2_self_attn_k_proj_weight_to_fp16"), val = tensor<fp16, [768, 768]>(BLOBFILE(path = tensor<string, []>("@model_path/weights/weight.bin"), offset = tensor<uint64, []>(31020544)))];
            tensor<fp16, [768]> model_vision_model_encoder_layers_2_self_attn_k_proj_bias_to_fp16 = const()[name = tensor<string, []>("model_vision_model_encoder_layers_2_self_attn_k_proj_bias_to_fp16"), val = tensor<fp16, [768]>(BLOBFILE(path = tensor<string, []>("@model_path/weights/weight.bin"), offset = tensor<uint64, []>(32200256)))];
            tensor<fp16, [1, 196, 768]> linear_13_cast_fp16 = linear(bias = model_vision_model_encoder_layers_2_self_attn_k_proj_bias_to_fp16, weight = model_vision_model_encoder_layers_2_self_attn_k_proj_weight_to_fp16, x = hidden_states_13_cast_fp16)[name = tensor<string, []>("linear_13_cast_fp16")];
            tensor<fp16, [768, 768]> model_vision_model_encoder_layers_2_self_attn_v_proj_weight_to_fp16 = const()[name = tensor<string, []>("model_vision_model_encoder_layers_2_self_attn_v_proj_weight_to_fp16"), val = tensor<fp16, [768, 768]>(BLOBFILE(path = tensor<string, []>("@model_path/weights/weight.bin"), offset = tensor<uint64, []>(32201856)))];
            tensor<fp16, [768]> model_vision_model_encoder_layers_2_self_attn_v_proj_bias_to_fp16 = const()[name = tensor<string, []>("model_vision_model_encoder_layers_2_self_attn_v_proj_bias_to_fp16"), val = tensor<fp16, [768]>(BLOBFILE(path = tensor<string, []>("@model_path/weights/weight.bin"), offset = tensor<uint64, []>(33381568)))];
            tensor<fp16, [1, 196, 768]> linear_14_cast_fp16 = linear(bias = model_vision_model_encoder_layers_2_self_attn_v_proj_bias_to_fp16, weight = model_vision_model_encoder_layers_2_self_attn_v_proj_weight_to_fp16, x = hidden_states_13_cast_fp16)[name = tensor<string, []>("linear_14_cast_fp16")];
            tensor<int32, [4]> var_201 = const()[name = tensor<string, []>("op_201"), val = tensor<int32, [4]>([1, 196, 12, 64])];
            tensor<fp16, [1, 196, 12, 64]> var_202_cast_fp16 = reshape(shape = var_201, x = linear_12_cast_fp16)[name = tensor<string, []>("op_202_cast_fp16")];
            tensor<int32, [4]> var_204 = const()[name = tensor<string, []>("op_204"), val = tensor<int32, [4]>([1, 196, 12, 64])];
            tensor<fp16, [1, 196, 12, 64]> var_205_cast_fp16 = reshape(shape = var_204, x = linear_13_cast_fp16)[name = tensor<string, []>("op_205_cast_fp16")];
            tensor<int32, [4]> var_207 = const()[name = tensor<string, []>("op_207"), val = tensor<int32, [4]>([1, 196, 12, 64])];
            tensor<fp16, [1, 196, 12, 64]> var_208_cast_fp16 = reshape(shape = var_207, x = linear_14_cast_fp16)[name = tensor<string, []>("op_208_cast_fp16")];
            tensor<int32, [4]> value_5_perm_0 = const()[name = tensor<string, []>("value_5_perm_0"), val = tensor<int32, [4]>([0, 2, 1, 3])];
            tensor<fp16, [1, 196, 12, 64]> mul_2_cast_fp16 = mul(x = var_202_cast_fp16, y = var_14_to_fp16)[name = tensor<string, []>("mul_2_cast_fp16")];
            tensor<bool, []> matmul_2_transpose_y_0 = const()[name = tensor<string, []>("matmul_2_transpose_y_0"), val = tensor<bool, []>(true)];
            tensor<bool, []> matmul_2_transpose_x_0 = const()[name = tensor<string, []>("matmul_2_transpose_x_0"), val = tensor<bool, []>(false)];
            tensor<int32, [4]> transpose_52_perm_0 = const()[name = tensor<string, []>("transpose_52_perm_0"), val = tensor<int32, [4]>([0, 2, -3, -1])];
            tensor<int32, [4]> transpose_53_perm_0 = const()[name = tensor<string, []>("transpose_53_perm_0"), val = tensor<int32, [4]>([0, 2, -3, -1])];
            tensor<fp16, [1, 12, 196, 64]> transpose_53 = transpose(perm = transpose_53_perm_0, x = var_205_cast_fp16)[name = tensor<string, []>("transpose_109")];
            tensor<fp16, [1, 12, 196, 64]> transpose_52 = transpose(perm = transpose_52_perm_0, x = mul_2_cast_fp16)[name = tensor<string, []>("transpose_110")];
            tensor<fp16, [1, 12, 196, 196]> matmul_2_cast_fp16 = matmul(transpose_x = matmul_2_transpose_x_0, transpose_y = matmul_2_transpose_y_0, x = transpose_52, y = transpose_53)[name = tensor<string, []>("matmul_2_cast_fp16")];
            tensor<int32, []> softmax_2_axis_0 = const()[name = tensor<string, []>("softmax_2_axis_0"), val = tensor<int32, []>(-1)];
            tensor<fp16, [1, 12, 196, 196]> softmax_2_cast_fp16 = softmax(axis = softmax_2_axis_0, x = matmul_2_cast_fp16)[name = tensor<string, []>("softmax_2_cast_fp16")];
            tensor<bool, []> attn_output_9_transpose_x_0 = const()[name = tensor<string, []>("attn_output_9_transpose_x_0"), val = tensor<bool, []>(false)];
            tensor<bool, []> attn_output_9_transpose_y_0 = const()[name = tensor<string, []>("attn_output_9_transpose_y_0"), val = tensor<bool, []>(false)];
            tensor<fp16, [1, 12, 196, 64]> value_5_cast_fp16 = transpose(perm = value_5_perm_0, x = var_208_cast_fp16)[name = tensor<string, []>("transpose_111")];
            tensor<fp16, [1, 12, 196, 64]> attn_output_9_cast_fp16 = matmul(transpose_x = attn_output_9_transpose_x_0, transpose_y = attn_output_9_transpose_y_0, x = softmax_2_cast_fp16, y = value_5_cast_fp16)[name = tensor<string, []>("attn_output_9_cast_fp16")];
            tensor<int32, [4]> var_211_perm_0 = const()[name = tensor<string, []>("op_211_perm_0"), val = tensor<int32, [4]>([0, 2, 1, 3])];
            tensor<int32, [3]> var_213 = const()[name = tensor<string, []>("op_213"), val = tensor<int32, [3]>([1, 196, 768])];
            tensor<fp16, [1, 196, 12, 64]> var_211_cast_fp16 = transpose(perm = var_211_perm_0, x = attn_output_9_cast_fp16)[name = tensor<string, []>("transpose_108")];
            tensor<fp16, [1, 196, 768]> var_214_cast_fp16 = reshape(shape = var_213, x = var_211_cast_fp16)[name = tensor<string, []>("op_214_cast_fp16")];
            tensor<fp16, [768, 768]> model_vision_model_encoder_layers_2_self_attn_out_proj_weight_to_fp16 = const()[name = tensor<string, []>("model_vision_model_encoder_layers_2_self_attn_out_proj_weight_to_fp16"), val = tensor<fp16, [768, 768]>(BLOBFILE(path = tensor<string, []>("@model_path/weights/weight.bin"), offset = tensor<uint64, []>(33383168)))];
            tensor<fp16, [768]> model_vision_model_encoder_layers_2_self_attn_out_proj_bias_to_fp16 = const()[name = tensor<string, []>("model_vision_model_encoder_layers_2_self_attn_out_proj_bias_to_fp16"), val = tensor<fp16, [768]>(BLOBFILE(path = tensor<string, []>("@model_path/weights/weight.bin"), offset = tensor<uint64, []>(34562880)))];
            tensor<fp16, [1, 196, 768]> linear_15_cast_fp16 = linear(bias = model_vision_model_encoder_layers_2_self_attn_out_proj_bias_to_fp16, weight = model_vision_model_encoder_layers_2_self_attn_out_proj_weight_to_fp16, x = var_214_cast_fp16)[name = tensor<string, []>("linear_15_cast_fp16")];
            tensor<fp16, [1, 196, 768]> input_33_cast_fp16 = add(x = input_29_cast_fp16, y = linear_15_cast_fp16)[name = tensor<string, []>("input_33_cast_fp16")];
            tensor<int32, [1]> input_35_axes_0 = const()[name = tensor<string, []>("input_35_axes_0"), val = tensor<int32, [1]>([-1])];
            tensor<fp16, [768]> model_vision_model_encoder_layers_2_layer_norm2_weight_to_fp16 = const()[name = tensor<string, []>("model_vision_model_encoder_layers_2_layer_norm2_weight_to_fp16"), val = tensor<fp16, [768]>(BLOBFILE(path = tensor<string, []>("@model_path/weights/weight.bin"), offset = tensor<uint64, []>(34564480)))];
            tensor<fp16, [768]> model_vision_model_encoder_layers_2_layer_norm2_bias_to_fp16 = const()[name = tensor<string, []>("model_vision_model_encoder_layers_2_layer_norm2_bias_to_fp16"), val = tensor<fp16, [768]>(BLOBFILE(path = tensor<string, []>("@model_path/weights/weight.bin"), offset = tensor<uint64, []>(34566080)))];
            tensor<fp16, [1, 196, 768]> input_35_cast_fp16 = layer_norm(axes = input_35_axes_0, beta = model_vision_model_encoder_layers_2_layer_norm2_bias_to_fp16, epsilon = var_12_to_fp16, gamma = model_vision_model_encoder_layers_2_layer_norm2_weight_to_fp16, x = input_33_cast_fp16)[name = tensor<string, []>("input_35_cast_fp16")];
            tensor<fp16, [3072, 768]> model_vision_model_encoder_layers_2_mlp_fc1_weight_to_fp16 = const()[name = tensor<string, []>("model_vision_model_encoder_layers_2_mlp_fc1_weight_to_fp16"), val = tensor<fp16, [3072, 768]>(BLOBFILE(path = tensor<string, []>("@model_path/weights/weight.bin"), offset = tensor<uint64, []>(34567680)))];
            tensor<fp16, [3072]> model_vision_model_encoder_layers_2_mlp_fc1_bias_to_fp16 = const()[name = tensor<string, []>("model_vision_model_encoder_layers_2_mlp_fc1_bias_to_fp16"), val = tensor<fp16, [3072]>(BLOBFILE(path = tensor<string, []>("@model_path/weights/weight.bin"), offset = tensor<uint64, []>(39286336)))];
            tensor<fp16, [1, 196, 3072]> linear_16_cast_fp16 = linear(bias = model_vision_model_encoder_layers_2_mlp_fc1_bias_to_fp16, weight = model_vision_model_encoder_layers_2_mlp_fc1_weight_to_fp16, x = input_35_cast_fp16)[name = tensor<string, []>("linear_16_cast_fp16")];
            tensor<string, []> input_39_mode_0 = const()[name = tensor<string, []>("input_39_mode_0"), val = tensor<string, []>("TANH_APPROXIMATION")];
            tensor<fp16, [1, 196, 3072]> input_39_cast_fp16 = gelu(mode = input_39_mode_0, x = linear_16_cast_fp16)[name = tensor<string, []>("input_39_cast_fp16")];
            tensor<fp16, [768, 3072]> model_vision_model_encoder_layers_2_mlp_fc2_weight_to_fp16 = const()[name = tensor<string, []>("model_vision_model_encoder_layers_2_mlp_fc2_weight_to_fp16"), val = tensor<fp16, [768, 3072]>(BLOBFILE(path = tensor<string, []>("@model_path/weights/weight.bin"), offset = tensor<uint64, []>(39292544)))];
            tensor<fp16, [768]> model_vision_model_encoder_layers_2_mlp_fc2_bias_to_fp16 = const()[name = tensor<string, []>("model_vision_model_encoder_layers_2_mlp_fc2_bias_to_fp16"), val = tensor<fp16, [768]>(BLOBFILE(path = tensor<string, []>("@model_path/weights/weight.bin"), offset = tensor<uint64, []>(44011200)))];
            tensor<fp16, [1, 196, 768]> linear_17_cast_fp16 = linear(bias = model_vision_model_encoder_layers_2_mlp_fc2_bias_to_fp16, weight = model_vision_model_encoder_layers_2_mlp_fc2_weight_to_fp16, x = input_39_cast_fp16)[name = tensor<string, []>("linear_17_cast_fp16")];
            tensor<fp16, [1, 196, 768]> input_41_cast_fp16 = add(x = input_33_cast_fp16, y = linear_17_cast_fp16)[name = tensor<string, []>("input_41_cast_fp16")];
            tensor<int32, [1]> hidden_states_19_axes_0 = const()[name = tensor<string, []>("hidden_states_19_axes_0"), val = tensor<int32, [1]>([-1])];
            tensor<fp16, [768]> model_vision_model_encoder_layers_3_layer_norm1_weight_to_fp16 = const()[name = tensor<string, []>("model_vision_model_encoder_layers_3_layer_norm1_weight_to_fp16"), val = tensor<fp16, [768]>(BLOBFILE(path = tensor<string, []>("@model_path/weights/weight.bin"), offset = tensor<uint64, []>(44012800)))];
            tensor<fp16, [768]> model_vision_model_encoder_layers_3_layer_norm1_bias_to_fp16 = const()[name = tensor<string, []>("model_vision_model_encoder_layers_3_layer_norm1_bias_to_fp16"), val = tensor<fp16, [768]>(BLOBFILE(path = tensor<string, []>("@model_path/weights/weight.bin"), offset = tensor<uint64, []>(44014400)))];
            tensor<fp16, [1, 196, 768]> hidden_states_19_cast_fp16 = layer_norm(axes = hidden_states_19_axes_0, beta = model_vision_model_encoder_layers_3_layer_norm1_bias_to_fp16, epsilon = var_12_to_fp16, gamma = model_vision_model_encoder_layers_3_layer_norm1_weight_to_fp16, x = input_41_cast_fp16)[name = tensor<string, []>("hidden_states_19_cast_fp16")];
            tensor<fp16, [768, 768]> model_vision_model_encoder_layers_3_self_attn_q_proj_weight_to_fp16 = const()[name = tensor<string, []>("model_vision_model_encoder_layers_3_self_attn_q_proj_weight_to_fp16"), val = tensor<fp16, [768, 768]>(BLOBFILE(path = tensor<string, []>("@model_path/weights/weight.bin"), offset = tensor<uint64, []>(44016000)))];
            tensor<fp16, [768]> model_vision_model_encoder_layers_3_self_attn_q_proj_bias_to_fp16 = const()[name = tensor<string, []>("model_vision_model_encoder_layers_3_self_attn_q_proj_bias_to_fp16"), val = tensor<fp16, [768]>(BLOBFILE(path = tensor<string, []>("@model_path/weights/weight.bin"), offset = tensor<uint64, []>(45195712)))];
            tensor<fp16, [1, 196, 768]> linear_18_cast_fp16 = linear(bias = model_vision_model_encoder_layers_3_self_attn_q_proj_bias_to_fp16, weight = model_vision_model_encoder_layers_3_self_attn_q_proj_weight_to_fp16, x = hidden_states_19_cast_fp16)[name = tensor<string, []>("linear_18_cast_fp16")];
            tensor<fp16, [768, 768]> model_vision_model_encoder_layers_3_self_attn_k_proj_weight_to_fp16 = const()[name = tensor<string, []>("model_vision_model_encoder_layers_3_self_attn_k_proj_weight_to_fp16"), val = tensor<fp16, [768, 768]>(BLOBFILE(path = tensor<string, []>("@model_path/weights/weight.bin"), offset = tensor<uint64, []>(45197312)))];
            tensor<fp16, [768]> model_vision_model_encoder_layers_3_self_attn_k_proj_bias_to_fp16 = const()[name = tensor<string, []>("model_vision_model_encoder_layers_3_self_attn_k_proj_bias_to_fp16"), val = tensor<fp16, [768]>(BLOBFILE(path = tensor<string, []>("@model_path/weights/weight.bin"), offset = tensor<uint64, []>(46377024)))];
            tensor<fp16, [1, 196, 768]> linear_19_cast_fp16 = linear(bias = model_vision_model_encoder_layers_3_self_attn_k_proj_bias_to_fp16, weight = model_vision_model_encoder_layers_3_self_attn_k_proj_weight_to_fp16, x = hidden_states_19_cast_fp16)[name = tensor<string, []>("linear_19_cast_fp16")];
            tensor<fp16, [768, 768]> model_vision_model_encoder_layers_3_self_attn_v_proj_weight_to_fp16 = const()[name = tensor<string, []>("model_vision_model_encoder_layers_3_self_attn_v_proj_weight_to_fp16"), val = tensor<fp16, [768, 768]>(BLOBFILE(path = tensor<string, []>("@model_path/weights/weight.bin"), offset = tensor<uint64, []>(46378624)))];
            tensor<fp16, [768]> model_vision_model_encoder_layers_3_self_attn_v_proj_bias_to_fp16 = const()[name = tensor<string, []>("model_vision_model_encoder_layers_3_self_attn_v_proj_bias_to_fp16"), val = tensor<fp16, [768]>(BLOBFILE(path = tensor<string, []>("@model_path/weights/weight.bin"), offset = tensor<uint64, []>(47558336)))];
            tensor<fp16, [1, 196, 768]> linear_20_cast_fp16 = linear(bias = model_vision_model_encoder_layers_3_self_attn_v_proj_bias_to_fp16, weight = model_vision_model_encoder_layers_3_self_attn_v_proj_weight_to_fp16, x = hidden_states_19_cast_fp16)[name = tensor<string, []>("linear_20_cast_fp16")];
            tensor<int32, [4]> var_258 = const()[name = tensor<string, []>("op_258"), val = tensor<int32, [4]>([1, 196, 12, 64])];
            tensor<fp16, [1, 196, 12, 64]> var_259_cast_fp16 = reshape(shape = var_258, x = linear_18_cast_fp16)[name = tensor<string, []>("op_259_cast_fp16")];
            tensor<int32, [4]> var_261 = const()[name = tensor<string, []>("op_261"), val = tensor<int32, [4]>([1, 196, 12, 64])];
            tensor<fp16, [1, 196, 12, 64]> var_262_cast_fp16 = reshape(shape = var_261, x = linear_19_cast_fp16)[name = tensor<string, []>("op_262_cast_fp16")];
            tensor<int32, [4]> var_264 = const()[name = tensor<string, []>("op_264"), val = tensor<int32, [4]>([1, 196, 12, 64])];
            tensor<fp16, [1, 196, 12, 64]> var_265_cast_fp16 = reshape(shape = var_264, x = linear_20_cast_fp16)[name = tensor<string, []>("op_265_cast_fp16")];
            tensor<int32, [4]> value_7_perm_0 = const()[name = tensor<string, []>("value_7_perm_0"), val = tensor<int32, [4]>([0, 2, 1, 3])];
            tensor<fp16, [1, 196, 12, 64]> mul_3_cast_fp16 = mul(x = var_259_cast_fp16, y = var_14_to_fp16)[name = tensor<string, []>("mul_3_cast_fp16")];
            tensor<bool, []> matmul_3_transpose_y_0 = const()[name = tensor<string, []>("matmul_3_transpose_y_0"), val = tensor<bool, []>(true)];
            tensor<bool, []> matmul_3_transpose_x_0 = const()[name = tensor<string, []>("matmul_3_transpose_x_0"), val = tensor<bool, []>(false)];
            tensor<int32, [4]> transpose_54_perm_0 = const()[name = tensor<string, []>("transpose_54_perm_0"), val = tensor<int32, [4]>([0, 2, -3, -1])];
            tensor<int32, [4]> transpose_55_perm_0 = const()[name = tensor<string, []>("transpose_55_perm_0"), val = tensor<int32, [4]>([0, 2, -3, -1])];
            tensor<fp16, [1, 12, 196, 64]> transpose_55 = transpose(perm = transpose_55_perm_0, x = var_262_cast_fp16)[name = tensor<string, []>("transpose_105")];
            tensor<fp16, [1, 12, 196, 64]> transpose_54 = transpose(perm = transpose_54_perm_0, x = mul_3_cast_fp16)[name = tensor<string, []>("transpose_106")];
            tensor<fp16, [1, 12, 196, 196]> matmul_3_cast_fp16 = matmul(transpose_x = matmul_3_transpose_x_0, transpose_y = matmul_3_transpose_y_0, x = transpose_54, y = transpose_55)[name = tensor<string, []>("matmul_3_cast_fp16")];
            tensor<int32, []> softmax_3_axis_0 = const()[name = tensor<string, []>("softmax_3_axis_0"), val = tensor<int32, []>(-1)];
            tensor<fp16, [1, 12, 196, 196]> softmax_3_cast_fp16 = softmax(axis = softmax_3_axis_0, x = matmul_3_cast_fp16)[name = tensor<string, []>("softmax_3_cast_fp16")];
            tensor<bool, []> attn_output_13_transpose_x_0 = const()[name = tensor<string, []>("attn_output_13_transpose_x_0"), val = tensor<bool, []>(false)];
            tensor<bool, []> attn_output_13_transpose_y_0 = const()[name = tensor<string, []>("attn_output_13_transpose_y_0"), val = tensor<bool, []>(false)];
            tensor<fp16, [1, 12, 196, 64]> value_7_cast_fp16 = transpose(perm = value_7_perm_0, x = var_265_cast_fp16)[name = tensor<string, []>("transpose_107")];
            tensor<fp16, [1, 12, 196, 64]> attn_output_13_cast_fp16 = matmul(transpose_x = attn_output_13_transpose_x_0, transpose_y = attn_output_13_transpose_y_0, x = softmax_3_cast_fp16, y = value_7_cast_fp16)[name = tensor<string, []>("attn_output_13_cast_fp16")];
            tensor<int32, [4]> var_268_perm_0 = const()[name = tensor<string, []>("op_268_perm_0"), val = tensor<int32, [4]>([0, 2, 1, 3])];
            tensor<int32, [3]> var_270 = const()[name = tensor<string, []>("op_270"), val = tensor<int32, [3]>([1, 196, 768])];
            tensor<fp16, [1, 196, 12, 64]> var_268_cast_fp16 = transpose(perm = var_268_perm_0, x = attn_output_13_cast_fp16)[name = tensor<string, []>("transpose_104")];
            tensor<fp16, [1, 196, 768]> var_271_cast_fp16 = reshape(shape = var_270, x = var_268_cast_fp16)[name = tensor<string, []>("op_271_cast_fp16")];
            tensor<fp16, [768, 768]> model_vision_model_encoder_layers_3_self_attn_out_proj_weight_to_fp16 = const()[name = tensor<string, []>("model_vision_model_encoder_layers_3_self_attn_out_proj_weight_to_fp16"), val = tensor<fp16, [768, 768]>(BLOBFILE(path = tensor<string, []>("@model_path/weights/weight.bin"), offset = tensor<uint64, []>(47559936)))];
            tensor<fp16, [768]> model_vision_model_encoder_layers_3_self_attn_out_proj_bias_to_fp16 = const()[name = tensor<string, []>("model_vision_model_encoder_layers_3_self_attn_out_proj_bias_to_fp16"), val = tensor<fp16, [768]>(BLOBFILE(path = tensor<string, []>("@model_path/weights/weight.bin"), offset = tensor<uint64, []>(48739648)))];
            tensor<fp16, [1, 196, 768]> linear_21_cast_fp16 = linear(bias = model_vision_model_encoder_layers_3_self_attn_out_proj_bias_to_fp16, weight = model_vision_model_encoder_layers_3_self_attn_out_proj_weight_to_fp16, x = var_271_cast_fp16)[name = tensor<string, []>("linear_21_cast_fp16")];
            tensor<fp16, [1, 196, 768]> input_45_cast_fp16 = add(x = input_41_cast_fp16, y = linear_21_cast_fp16)[name = tensor<string, []>("input_45_cast_fp16")];
            tensor<int32, [1]> input_47_axes_0 = const()[name = tensor<string, []>("input_47_axes_0"), val = tensor<int32, [1]>([-1])];
            tensor<fp16, [768]> model_vision_model_encoder_layers_3_layer_norm2_weight_to_fp16 = const()[name = tensor<string, []>("model_vision_model_encoder_layers_3_layer_norm2_weight_to_fp16"), val = tensor<fp16, [768]>(BLOBFILE(path = tensor<string, []>("@model_path/weights/weight.bin"), offset = tensor<uint64, []>(48741248)))];
            tensor<fp16, [768]> model_vision_model_encoder_layers_3_layer_norm2_bias_to_fp16 = const()[name = tensor<string, []>("model_vision_model_encoder_layers_3_layer_norm2_bias_to_fp16"), val = tensor<fp16, [768]>(BLOBFILE(path = tensor<string, []>("@model_path/weights/weight.bin"), offset = tensor<uint64, []>(48742848)))];
            tensor<fp16, [1, 196, 768]> input_47_cast_fp16 = layer_norm(axes = input_47_axes_0, beta = model_vision_model_encoder_layers_3_layer_norm2_bias_to_fp16, epsilon = var_12_to_fp16, gamma = model_vision_model_encoder_layers_3_layer_norm2_weight_to_fp16, x = input_45_cast_fp16)[name = tensor<string, []>("input_47_cast_fp16")];
            tensor<fp16, [3072, 768]> model_vision_model_encoder_layers_3_mlp_fc1_weight_to_fp16 = const()[name = tensor<string, []>("model_vision_model_encoder_layers_3_mlp_fc1_weight_to_fp16"), val = tensor<fp16, [3072, 768]>(BLOBFILE(path = tensor<string, []>("@model_path/weights/weight.bin"), offset = tensor<uint64, []>(48744448)))];
            tensor<fp16, [3072]> model_vision_model_encoder_layers_3_mlp_fc1_bias_to_fp16 = const()[name = tensor<string, []>("model_vision_model_encoder_layers_3_mlp_fc1_bias_to_fp16"), val = tensor<fp16, [3072]>(BLOBFILE(path = tensor<string, []>("@model_path/weights/weight.bin"), offset = tensor<uint64, []>(53463104)))];
            tensor<fp16, [1, 196, 3072]> linear_22_cast_fp16 = linear(bias = model_vision_model_encoder_layers_3_mlp_fc1_bias_to_fp16, weight = model_vision_model_encoder_layers_3_mlp_fc1_weight_to_fp16, x = input_47_cast_fp16)[name = tensor<string, []>("linear_22_cast_fp16")];
            tensor<string, []> input_51_mode_0 = const()[name = tensor<string, []>("input_51_mode_0"), val = tensor<string, []>("TANH_APPROXIMATION")];
            tensor<fp16, [1, 196, 3072]> input_51_cast_fp16 = gelu(mode = input_51_mode_0, x = linear_22_cast_fp16)[name = tensor<string, []>("input_51_cast_fp16")];
            tensor<fp16, [768, 3072]> model_vision_model_encoder_layers_3_mlp_fc2_weight_to_fp16 = const()[name = tensor<string, []>("model_vision_model_encoder_layers_3_mlp_fc2_weight_to_fp16"), val = tensor<fp16, [768, 3072]>(BLOBFILE(path = tensor<string, []>("@model_path/weights/weight.bin"), offset = tensor<uint64, []>(53469312)))];
            tensor<fp16, [768]> model_vision_model_encoder_layers_3_mlp_fc2_bias_to_fp16 = const()[name = tensor<string, []>("model_vision_model_encoder_layers_3_mlp_fc2_bias_to_fp16"), val = tensor<fp16, [768]>(BLOBFILE(path = tensor<string, []>("@model_path/weights/weight.bin"), offset = tensor<uint64, []>(58187968)))];
            tensor<fp16, [1, 196, 768]> linear_23_cast_fp16 = linear(bias = model_vision_model_encoder_layers_3_mlp_fc2_bias_to_fp16, weight = model_vision_model_encoder_layers_3_mlp_fc2_weight_to_fp16, x = input_51_cast_fp16)[name = tensor<string, []>("linear_23_cast_fp16")];
            tensor<fp16, [1, 196, 768]> input_53_cast_fp16 = add(x = input_45_cast_fp16, y = linear_23_cast_fp16)[name = tensor<string, []>("input_53_cast_fp16")];
            tensor<int32, [1]> hidden_states_25_axes_0 = const()[name = tensor<string, []>("hidden_states_25_axes_0"), val = tensor<int32, [1]>([-1])];
            tensor<fp16, [768]> model_vision_model_encoder_layers_4_layer_norm1_weight_to_fp16 = const()[name = tensor<string, []>("model_vision_model_encoder_layers_4_layer_norm1_weight_to_fp16"), val = tensor<fp16, [768]>(BLOBFILE(path = tensor<string, []>("@model_path/weights/weight.bin"), offset = tensor<uint64, []>(58189568)))];
            tensor<fp16, [768]> model_vision_model_encoder_layers_4_layer_norm1_bias_to_fp16 = const()[name = tensor<string, []>("model_vision_model_encoder_layers_4_layer_norm1_bias_to_fp16"), val = tensor<fp16, [768]>(BLOBFILE(path = tensor<string, []>("@model_path/weights/weight.bin"), offset = tensor<uint64, []>(58191168)))];
            tensor<fp16, [1, 196, 768]> hidden_states_25_cast_fp16 = layer_norm(axes = hidden_states_25_axes_0, beta = model_vision_model_encoder_layers_4_layer_norm1_bias_to_fp16, epsilon = var_12_to_fp16, gamma = model_vision_model_encoder_layers_4_layer_norm1_weight_to_fp16, x = input_53_cast_fp16)[name = tensor<string, []>("hidden_states_25_cast_fp16")];
            tensor<fp16, [768, 768]> model_vision_model_encoder_layers_4_self_attn_q_proj_weight_to_fp16 = const()[name = tensor<string, []>("model_vision_model_encoder_layers_4_self_attn_q_proj_weight_to_fp16"), val = tensor<fp16, [768, 768]>(BLOBFILE(path = tensor<string, []>("@model_path/weights/weight.bin"), offset = tensor<uint64, []>(58192768)))];
            tensor<fp16, [768]> model_vision_model_encoder_layers_4_self_attn_q_proj_bias_to_fp16 = const()[name = tensor<string, []>("model_vision_model_encoder_layers_4_self_attn_q_proj_bias_to_fp16"), val = tensor<fp16, [768]>(BLOBFILE(path = tensor<string, []>("@model_path/weights/weight.bin"), offset = tensor<uint64, []>(59372480)))];
            tensor<fp16, [1, 196, 768]> linear_24_cast_fp16 = linear(bias = model_vision_model_encoder_layers_4_self_attn_q_proj_bias_to_fp16, weight = model_vision_model_encoder_layers_4_self_attn_q_proj_weight_to_fp16, x = hidden_states_25_cast_fp16)[name = tensor<string, []>("linear_24_cast_fp16")];
            tensor<fp16, [768, 768]> model_vision_model_encoder_layers_4_self_attn_k_proj_weight_to_fp16 = const()[name = tensor<string, []>("model_vision_model_encoder_layers_4_self_attn_k_proj_weight_to_fp16"), val = tensor<fp16, [768, 768]>(BLOBFILE(path = tensor<string, []>("@model_path/weights/weight.bin"), offset = tensor<uint64, []>(59374080)))];
            tensor<fp16, [768]> model_vision_model_encoder_layers_4_self_attn_k_proj_bias_to_fp16 = const()[name = tensor<string, []>("model_vision_model_encoder_layers_4_self_attn_k_proj_bias_to_fp16"), val = tensor<fp16, [768]>(BLOBFILE(path = tensor<string, []>("@model_path/weights/weight.bin"), offset = tensor<uint64, []>(60553792)))];
            tensor<fp16, [1, 196, 768]> linear_25_cast_fp16 = linear(bias = model_vision_model_encoder_layers_4_self_attn_k_proj_bias_to_fp16, weight = model_vision_model_encoder_layers_4_self_attn_k_proj_weight_to_fp16, x = hidden_states_25_cast_fp16)[name = tensor<string, []>("linear_25_cast_fp16")];
            tensor<fp16, [768, 768]> model_vision_model_encoder_layers_4_self_attn_v_proj_weight_to_fp16 = const()[name = tensor<string, []>("model_vision_model_encoder_layers_4_self_attn_v_proj_weight_to_fp16"), val = tensor<fp16, [768, 768]>(BLOBFILE(path = tensor<string, []>("@model_path/weights/weight.bin"), offset = tensor<uint64, []>(60555392)))];
            tensor<fp16, [768]> model_vision_model_encoder_layers_4_self_attn_v_proj_bias_to_fp16 = const()[name = tensor<string, []>("model_vision_model_encoder_layers_4_self_attn_v_proj_bias_to_fp16"), val = tensor<fp16, [768]>(BLOBFILE(path = tensor<string, []>("@model_path/weights/weight.bin"), offset = tensor<uint64, []>(61735104)))];
            tensor<fp16, [1, 196, 768]> linear_26_cast_fp16 = linear(bias = model_vision_model_encoder_layers_4_self_attn_v_proj_bias_to_fp16, weight = model_vision_model_encoder_layers_4_self_attn_v_proj_weight_to_fp16, x = hidden_states_25_cast_fp16)[name = tensor<string, []>("linear_26_cast_fp16")];
            tensor<int32, [4]> var_315 = const()[name = tensor<string, []>("op_315"), val = tensor<int32, [4]>([1, 196, 12, 64])];
            tensor<fp16, [1, 196, 12, 64]> var_316_cast_fp16 = reshape(shape = var_315, x = linear_24_cast_fp16)[name = tensor<string, []>("op_316_cast_fp16")];
            tensor<int32, [4]> var_318 = const()[name = tensor<string, []>("op_318"), val = tensor<int32, [4]>([1, 196, 12, 64])];
            tensor<fp16, [1, 196, 12, 64]> var_319_cast_fp16 = reshape(shape = var_318, x = linear_25_cast_fp16)[name = tensor<string, []>("op_319_cast_fp16")];
            tensor<int32, [4]> var_321 = const()[name = tensor<string, []>("op_321"), val = tensor<int32, [4]>([1, 196, 12, 64])];
            tensor<fp16, [1, 196, 12, 64]> var_322_cast_fp16 = reshape(shape = var_321, x = linear_26_cast_fp16)[name = tensor<string, []>("op_322_cast_fp16")];
            tensor<int32, [4]> value_9_perm_0 = const()[name = tensor<string, []>("value_9_perm_0"), val = tensor<int32, [4]>([0, 2, 1, 3])];
            tensor<fp16, [1, 196, 12, 64]> mul_4_cast_fp16 = mul(x = var_316_cast_fp16, y = var_14_to_fp16)[name = tensor<string, []>("mul_4_cast_fp16")];
            tensor<bool, []> matmul_4_transpose_y_0 = const()[name = tensor<string, []>("matmul_4_transpose_y_0"), val = tensor<bool, []>(true)];
            tensor<bool, []> matmul_4_transpose_x_0 = const()[name = tensor<string, []>("matmul_4_transpose_x_0"), val = tensor<bool, []>(false)];
            tensor<int32, [4]> transpose_56_perm_0 = const()[name = tensor<string, []>("transpose_56_perm_0"), val = tensor<int32, [4]>([0, 2, -3, -1])];
            tensor<int32, [4]> transpose_57_perm_0 = const()[name = tensor<string, []>("transpose_57_perm_0"), val = tensor<int32, [4]>([0, 2, -3, -1])];
            tensor<fp16, [1, 12, 196, 64]> transpose_57 = transpose(perm = transpose_57_perm_0, x = var_319_cast_fp16)[name = tensor<string, []>("transpose_101")];
            tensor<fp16, [1, 12, 196, 64]> transpose_56 = transpose(perm = transpose_56_perm_0, x = mul_4_cast_fp16)[name = tensor<string, []>("transpose_102")];
            tensor<fp16, [1, 12, 196, 196]> matmul_4_cast_fp16 = matmul(transpose_x = matmul_4_transpose_x_0, transpose_y = matmul_4_transpose_y_0, x = transpose_56, y = transpose_57)[name = tensor<string, []>("matmul_4_cast_fp16")];
            tensor<int32, []> softmax_4_axis_0 = const()[name = tensor<string, []>("softmax_4_axis_0"), val = tensor<int32, []>(-1)];
            tensor<fp16, [1, 12, 196, 196]> softmax_4_cast_fp16 = softmax(axis = softmax_4_axis_0, x = matmul_4_cast_fp16)[name = tensor<string, []>("softmax_4_cast_fp16")];
            tensor<bool, []> attn_output_17_transpose_x_0 = const()[name = tensor<string, []>("attn_output_17_transpose_x_0"), val = tensor<bool, []>(false)];
            tensor<bool, []> attn_output_17_transpose_y_0 = const()[name = tensor<string, []>("attn_output_17_transpose_y_0"), val = tensor<bool, []>(false)];
            tensor<fp16, [1, 12, 196, 64]> value_9_cast_fp16 = transpose(perm = value_9_perm_0, x = var_322_cast_fp16)[name = tensor<string, []>("transpose_103")];
            tensor<fp16, [1, 12, 196, 64]> attn_output_17_cast_fp16 = matmul(transpose_x = attn_output_17_transpose_x_0, transpose_y = attn_output_17_transpose_y_0, x = softmax_4_cast_fp16, y = value_9_cast_fp16)[name = tensor<string, []>("attn_output_17_cast_fp16")];
            tensor<int32, [4]> var_325_perm_0 = const()[name = tensor<string, []>("op_325_perm_0"), val = tensor<int32, [4]>([0, 2, 1, 3])];
            tensor<int32, [3]> var_327 = const()[name = tensor<string, []>("op_327"), val = tensor<int32, [3]>([1, 196, 768])];
            tensor<fp16, [1, 196, 12, 64]> var_325_cast_fp16 = transpose(perm = var_325_perm_0, x = attn_output_17_cast_fp16)[name = tensor<string, []>("transpose_100")];
            tensor<fp16, [1, 196, 768]> var_328_cast_fp16 = reshape(shape = var_327, x = var_325_cast_fp16)[name = tensor<string, []>("op_328_cast_fp16")];
            tensor<fp16, [768, 768]> model_vision_model_encoder_layers_4_self_attn_out_proj_weight_to_fp16 = const()[name = tensor<string, []>("model_vision_model_encoder_layers_4_self_attn_out_proj_weight_to_fp16"), val = tensor<fp16, [768, 768]>(BLOBFILE(path = tensor<string, []>("@model_path/weights/weight.bin"), offset = tensor<uint64, []>(61736704)))];
            tensor<fp16, [768]> model_vision_model_encoder_layers_4_self_attn_out_proj_bias_to_fp16 = const()[name = tensor<string, []>("model_vision_model_encoder_layers_4_self_attn_out_proj_bias_to_fp16"), val = tensor<fp16, [768]>(BLOBFILE(path = tensor<string, []>("@model_path/weights/weight.bin"), offset = tensor<uint64, []>(62916416)))];
            tensor<fp16, [1, 196, 768]> linear_27_cast_fp16 = linear(bias = model_vision_model_encoder_layers_4_self_attn_out_proj_bias_to_fp16, weight = model_vision_model_encoder_layers_4_self_attn_out_proj_weight_to_fp16, x = var_328_cast_fp16)[name = tensor<string, []>("linear_27_cast_fp16")];
            tensor<fp16, [1, 196, 768]> input_57_cast_fp16 = add(x = input_53_cast_fp16, y = linear_27_cast_fp16)[name = tensor<string, []>("input_57_cast_fp16")];
            tensor<int32, [1]> input_59_axes_0 = const()[name = tensor<string, []>("input_59_axes_0"), val = tensor<int32, [1]>([-1])];
            tensor<fp16, [768]> model_vision_model_encoder_layers_4_layer_norm2_weight_to_fp16 = const()[name = tensor<string, []>("model_vision_model_encoder_layers_4_layer_norm2_weight_to_fp16"), val = tensor<fp16, [768]>(BLOBFILE(path = tensor<string, []>("@model_path/weights/weight.bin"), offset = tensor<uint64, []>(62918016)))];
            tensor<fp16, [768]> model_vision_model_encoder_layers_4_layer_norm2_bias_to_fp16 = const()[name = tensor<string, []>("model_vision_model_encoder_layers_4_layer_norm2_bias_to_fp16"), val = tensor<fp16, [768]>(BLOBFILE(path = tensor<string, []>("@model_path/weights/weight.bin"), offset = tensor<uint64, []>(62919616)))];
            tensor<fp16, [1, 196, 768]> input_59_cast_fp16 = layer_norm(axes = input_59_axes_0, beta = model_vision_model_encoder_layers_4_layer_norm2_bias_to_fp16, epsilon = var_12_to_fp16, gamma = model_vision_model_encoder_layers_4_layer_norm2_weight_to_fp16, x = input_57_cast_fp16)[name = tensor<string, []>("input_59_cast_fp16")];
            tensor<fp16, [3072, 768]> model_vision_model_encoder_layers_4_mlp_fc1_weight_to_fp16 = const()[name = tensor<string, []>("model_vision_model_encoder_layers_4_mlp_fc1_weight_to_fp16"), val = tensor<fp16, [3072, 768]>(BLOBFILE(path = tensor<string, []>("@model_path/weights/weight.bin"), offset = tensor<uint64, []>(62921216)))];
            tensor<fp16, [3072]> model_vision_model_encoder_layers_4_mlp_fc1_bias_to_fp16 = const()[name = tensor<string, []>("model_vision_model_encoder_layers_4_mlp_fc1_bias_to_fp16"), val = tensor<fp16, [3072]>(BLOBFILE(path = tensor<string, []>("@model_path/weights/weight.bin"), offset = tensor<uint64, []>(67639872)))];
            tensor<fp16, [1, 196, 3072]> linear_28_cast_fp16 = linear(bias = model_vision_model_encoder_layers_4_mlp_fc1_bias_to_fp16, weight = model_vision_model_encoder_layers_4_mlp_fc1_weight_to_fp16, x = input_59_cast_fp16)[name = tensor<string, []>("linear_28_cast_fp16")];
            tensor<string, []> input_63_mode_0 = const()[name = tensor<string, []>("input_63_mode_0"), val = tensor<string, []>("TANH_APPROXIMATION")];
            tensor<fp16, [1, 196, 3072]> input_63_cast_fp16 = gelu(mode = input_63_mode_0, x = linear_28_cast_fp16)[name = tensor<string, []>("input_63_cast_fp16")];
            tensor<fp16, [768, 3072]> model_vision_model_encoder_layers_4_mlp_fc2_weight_to_fp16 = const()[name = tensor<string, []>("model_vision_model_encoder_layers_4_mlp_fc2_weight_to_fp16"), val = tensor<fp16, [768, 3072]>(BLOBFILE(path = tensor<string, []>("@model_path/weights/weight.bin"), offset = tensor<uint64, []>(67646080)))];
            tensor<fp16, [768]> model_vision_model_encoder_layers_4_mlp_fc2_bias_to_fp16 = const()[name = tensor<string, []>("model_vision_model_encoder_layers_4_mlp_fc2_bias_to_fp16"), val = tensor<fp16, [768]>(BLOBFILE(path = tensor<string, []>("@model_path/weights/weight.bin"), offset = tensor<uint64, []>(72364736)))];
            tensor<fp16, [1, 196, 768]> linear_29_cast_fp16 = linear(bias = model_vision_model_encoder_layers_4_mlp_fc2_bias_to_fp16, weight = model_vision_model_encoder_layers_4_mlp_fc2_weight_to_fp16, x = input_63_cast_fp16)[name = tensor<string, []>("linear_29_cast_fp16")];
            tensor<fp16, [1, 196, 768]> input_65_cast_fp16 = add(x = input_57_cast_fp16, y = linear_29_cast_fp16)[name = tensor<string, []>("input_65_cast_fp16")];
            tensor<int32, [1]> hidden_states_31_axes_0 = const()[name = tensor<string, []>("hidden_states_31_axes_0"), val = tensor<int32, [1]>([-1])];
            tensor<fp16, [768]> model_vision_model_encoder_layers_5_layer_norm1_weight_to_fp16 = const()[name = tensor<string, []>("model_vision_model_encoder_layers_5_layer_norm1_weight_to_fp16"), val = tensor<fp16, [768]>(BLOBFILE(path = tensor<string, []>("@model_path/weights/weight.bin"), offset = tensor<uint64, []>(72366336)))];
            tensor<fp16, [768]> model_vision_model_encoder_layers_5_layer_norm1_bias_to_fp16 = const()[name = tensor<string, []>("model_vision_model_encoder_layers_5_layer_norm1_bias_to_fp16"), val = tensor<fp16, [768]>(BLOBFILE(path = tensor<string, []>("@model_path/weights/weight.bin"), offset = tensor<uint64, []>(72367936)))];
            tensor<fp16, [1, 196, 768]> hidden_states_31_cast_fp16 = layer_norm(axes = hidden_states_31_axes_0, beta = model_vision_model_encoder_layers_5_layer_norm1_bias_to_fp16, epsilon = var_12_to_fp16, gamma = model_vision_model_encoder_layers_5_layer_norm1_weight_to_fp16, x = input_65_cast_fp16)[name = tensor<string, []>("hidden_states_31_cast_fp16")];
            tensor<fp16, [768, 768]> model_vision_model_encoder_layers_5_self_attn_q_proj_weight_to_fp16 = const()[name = tensor<string, []>("model_vision_model_encoder_layers_5_self_attn_q_proj_weight_to_fp16"), val = tensor<fp16, [768, 768]>(BLOBFILE(path = tensor<string, []>("@model_path/weights/weight.bin"), offset = tensor<uint64, []>(72369536)))];
            tensor<fp16, [768]> model_vision_model_encoder_layers_5_self_attn_q_proj_bias_to_fp16 = const()[name = tensor<string, []>("model_vision_model_encoder_layers_5_self_attn_q_proj_bias_to_fp16"), val = tensor<fp16, [768]>(BLOBFILE(path = tensor<string, []>("@model_path/weights/weight.bin"), offset = tensor<uint64, []>(73549248)))];
            tensor<fp16, [1, 196, 768]> linear_30_cast_fp16 = linear(bias = model_vision_model_encoder_layers_5_self_attn_q_proj_bias_to_fp16, weight = model_vision_model_encoder_layers_5_self_attn_q_proj_weight_to_fp16, x = hidden_states_31_cast_fp16)[name = tensor<string, []>("linear_30_cast_fp16")];
            tensor<fp16, [768, 768]> model_vision_model_encoder_layers_5_self_attn_k_proj_weight_to_fp16 = const()[name = tensor<string, []>("model_vision_model_encoder_layers_5_self_attn_k_proj_weight_to_fp16"), val = tensor<fp16, [768, 768]>(BLOBFILE(path = tensor<string, []>("@model_path/weights/weight.bin"), offset = tensor<uint64, []>(73550848)))];
            tensor<fp16, [768]> model_vision_model_encoder_layers_5_self_attn_k_proj_bias_to_fp16 = const()[name = tensor<string, []>("model_vision_model_encoder_layers_5_self_attn_k_proj_bias_to_fp16"), val = tensor<fp16, [768]>(BLOBFILE(path = tensor<string, []>("@model_path/weights/weight.bin"), offset = tensor<uint64, []>(74730560)))];
            tensor<fp16, [1, 196, 768]> linear_31_cast_fp16 = linear(bias = model_vision_model_encoder_layers_5_self_attn_k_proj_bias_to_fp16, weight = model_vision_model_encoder_layers_5_self_attn_k_proj_weight_to_fp16, x = hidden_states_31_cast_fp16)[name = tensor<string, []>("linear_31_cast_fp16")];
            tensor<fp16, [768, 768]> model_vision_model_encoder_layers_5_self_attn_v_proj_weight_to_fp16 = const()[name = tensor<string, []>("model_vision_model_encoder_layers_5_self_attn_v_proj_weight_to_fp16"), val = tensor<fp16, [768, 768]>(BLOBFILE(path = tensor<string, []>("@model_path/weights/weight.bin"), offset = tensor<uint64, []>(74732160)))];
            tensor<fp16, [768]> model_vision_model_encoder_layers_5_self_attn_v_proj_bias_to_fp16 = const()[name = tensor<string, []>("model_vision_model_encoder_layers_5_self_attn_v_proj_bias_to_fp16"), val = tensor<fp16, [768]>(BLOBFILE(path = tensor<string, []>("@model_path/weights/weight.bin"), offset = tensor<uint64, []>(75911872)))];
            tensor<fp16, [1, 196, 768]> linear_32_cast_fp16 = linear(bias = model_vision_model_encoder_layers_5_self_attn_v_proj_bias_to_fp16, weight = model_vision_model_encoder_layers_5_self_attn_v_proj_weight_to_fp16, x = hidden_states_31_cast_fp16)[name = tensor<string, []>("linear_32_cast_fp16")];
            tensor<int32, [4]> var_372 = const()[name = tensor<string, []>("op_372"), val = tensor<int32, [4]>([1, 196, 12, 64])];
            tensor<fp16, [1, 196, 12, 64]> var_373_cast_fp16 = reshape(shape = var_372, x = linear_30_cast_fp16)[name = tensor<string, []>("op_373_cast_fp16")];
            tensor<int32, [4]> var_375 = const()[name = tensor<string, []>("op_375"), val = tensor<int32, [4]>([1, 196, 12, 64])];
            tensor<fp16, [1, 196, 12, 64]> var_376_cast_fp16 = reshape(shape = var_375, x = linear_31_cast_fp16)[name = tensor<string, []>("op_376_cast_fp16")];
            tensor<int32, [4]> var_378 = const()[name = tensor<string, []>("op_378"), val = tensor<int32, [4]>([1, 196, 12, 64])];
            tensor<fp16, [1, 196, 12, 64]> var_379_cast_fp16 = reshape(shape = var_378, x = linear_32_cast_fp16)[name = tensor<string, []>("op_379_cast_fp16")];
            tensor<int32, [4]> value_11_perm_0 = const()[name = tensor<string, []>("value_11_perm_0"), val = tensor<int32, [4]>([0, 2, 1, 3])];
            tensor<fp16, [1, 196, 12, 64]> mul_5_cast_fp16 = mul(x = var_373_cast_fp16, y = var_14_to_fp16)[name = tensor<string, []>("mul_5_cast_fp16")];
            tensor<bool, []> matmul_5_transpose_y_0 = const()[name = tensor<string, []>("matmul_5_transpose_y_0"), val = tensor<bool, []>(true)];
            tensor<bool, []> matmul_5_transpose_x_0 = const()[name = tensor<string, []>("matmul_5_transpose_x_0"), val = tensor<bool, []>(false)];
            tensor<int32, [4]> transpose_58_perm_0 = const()[name = tensor<string, []>("transpose_58_perm_0"), val = tensor<int32, [4]>([0, 2, -3, -1])];
            tensor<int32, [4]> transpose_59_perm_0 = const()[name = tensor<string, []>("transpose_59_perm_0"), val = tensor<int32, [4]>([0, 2, -3, -1])];
            tensor<fp16, [1, 12, 196, 64]> transpose_59 = transpose(perm = transpose_59_perm_0, x = var_376_cast_fp16)[name = tensor<string, []>("transpose_97")];
            tensor<fp16, [1, 12, 196, 64]> transpose_58 = transpose(perm = transpose_58_perm_0, x = mul_5_cast_fp16)[name = tensor<string, []>("transpose_98")];
            tensor<fp16, [1, 12, 196, 196]> matmul_5_cast_fp16 = matmul(transpose_x = matmul_5_transpose_x_0, transpose_y = matmul_5_transpose_y_0, x = transpose_58, y = transpose_59)[name = tensor<string, []>("matmul_5_cast_fp16")];
            tensor<int32, []> softmax_5_axis_0 = const()[name = tensor<string, []>("softmax_5_axis_0"), val = tensor<int32, []>(-1)];
            tensor<fp16, [1, 12, 196, 196]> softmax_5_cast_fp16 = softmax(axis = softmax_5_axis_0, x = matmul_5_cast_fp16)[name = tensor<string, []>("softmax_5_cast_fp16")];
            tensor<bool, []> attn_output_21_transpose_x_0 = const()[name = tensor<string, []>("attn_output_21_transpose_x_0"), val = tensor<bool, []>(false)];
            tensor<bool, []> attn_output_21_transpose_y_0 = const()[name = tensor<string, []>("attn_output_21_transpose_y_0"), val = tensor<bool, []>(false)];
            tensor<fp16, [1, 12, 196, 64]> value_11_cast_fp16 = transpose(perm = value_11_perm_0, x = var_379_cast_fp16)[name = tensor<string, []>("transpose_99")];
            tensor<fp16, [1, 12, 196, 64]> attn_output_21_cast_fp16 = matmul(transpose_x = attn_output_21_transpose_x_0, transpose_y = attn_output_21_transpose_y_0, x = softmax_5_cast_fp16, y = value_11_cast_fp16)[name = tensor<string, []>("attn_output_21_cast_fp16")];
            tensor<int32, [4]> var_382_perm_0 = const()[name = tensor<string, []>("op_382_perm_0"), val = tensor<int32, [4]>([0, 2, 1, 3])];
            tensor<int32, [3]> var_384 = const()[name = tensor<string, []>("op_384"), val = tensor<int32, [3]>([1, 196, 768])];
            tensor<fp16, [1, 196, 12, 64]> var_382_cast_fp16 = transpose(perm = var_382_perm_0, x = attn_output_21_cast_fp16)[name = tensor<string, []>("transpose_96")];
            tensor<fp16, [1, 196, 768]> var_385_cast_fp16 = reshape(shape = var_384, x = var_382_cast_fp16)[name = tensor<string, []>("op_385_cast_fp16")];
            tensor<fp16, [768, 768]> model_vision_model_encoder_layers_5_self_attn_out_proj_weight_to_fp16 = const()[name = tensor<string, []>("model_vision_model_encoder_layers_5_self_attn_out_proj_weight_to_fp16"), val = tensor<fp16, [768, 768]>(BLOBFILE(path = tensor<string, []>("@model_path/weights/weight.bin"), offset = tensor<uint64, []>(75913472)))];
            tensor<fp16, [768]> model_vision_model_encoder_layers_5_self_attn_out_proj_bias_to_fp16 = const()[name = tensor<string, []>("model_vision_model_encoder_layers_5_self_attn_out_proj_bias_to_fp16"), val = tensor<fp16, [768]>(BLOBFILE(path = tensor<string, []>("@model_path/weights/weight.bin"), offset = tensor<uint64, []>(77093184)))];
            tensor<fp16, [1, 196, 768]> linear_33_cast_fp16 = linear(bias = model_vision_model_encoder_layers_5_self_attn_out_proj_bias_to_fp16, weight = model_vision_model_encoder_layers_5_self_attn_out_proj_weight_to_fp16, x = var_385_cast_fp16)[name = tensor<string, []>("linear_33_cast_fp16")];
            tensor<fp16, [1, 196, 768]> input_69_cast_fp16 = add(x = input_65_cast_fp16, y = linear_33_cast_fp16)[name = tensor<string, []>("input_69_cast_fp16")];
            tensor<int32, [1]> input_71_axes_0 = const()[name = tensor<string, []>("input_71_axes_0"), val = tensor<int32, [1]>([-1])];
            tensor<fp16, [768]> model_vision_model_encoder_layers_5_layer_norm2_weight_to_fp16 = const()[name = tensor<string, []>("model_vision_model_encoder_layers_5_layer_norm2_weight_to_fp16"), val = tensor<fp16, [768]>(BLOBFILE(path = tensor<string, []>("@model_path/weights/weight.bin"), offset = tensor<uint64, []>(77094784)))];
            tensor<fp16, [768]> model_vision_model_encoder_layers_5_layer_norm2_bias_to_fp16 = const()[name = tensor<string, []>("model_vision_model_encoder_layers_5_layer_norm2_bias_to_fp16"), val = tensor<fp16, [768]>(BLOBFILE(path = tensor<string, []>("@model_path/weights/weight.bin"), offset = tensor<uint64, []>(77096384)))];
            tensor<fp16, [1, 196, 768]> input_71_cast_fp16 = layer_norm(axes = input_71_axes_0, beta = model_vision_model_encoder_layers_5_layer_norm2_bias_to_fp16, epsilon = var_12_to_fp16, gamma = model_vision_model_encoder_layers_5_layer_norm2_weight_to_fp16, x = input_69_cast_fp16)[name = tensor<string, []>("input_71_cast_fp16")];
            tensor<fp16, [3072, 768]> model_vision_model_encoder_layers_5_mlp_fc1_weight_to_fp16 = const()[name = tensor<string, []>("model_vision_model_encoder_layers_5_mlp_fc1_weight_to_fp16"), val = tensor<fp16, [3072, 768]>(BLOBFILE(path = tensor<string, []>("@model_path/weights/weight.bin"), offset = tensor<uint64, []>(77097984)))];
            tensor<fp16, [3072]> model_vision_model_encoder_layers_5_mlp_fc1_bias_to_fp16 = const()[name = tensor<string, []>("model_vision_model_encoder_layers_5_mlp_fc1_bias_to_fp16"), val = tensor<fp16, [3072]>(BLOBFILE(path = tensor<string, []>("@model_path/weights/weight.bin"), offset = tensor<uint64, []>(81816640)))];
            tensor<fp16, [1, 196, 3072]> linear_34_cast_fp16 = linear(bias = model_vision_model_encoder_layers_5_mlp_fc1_bias_to_fp16, weight = model_vision_model_encoder_layers_5_mlp_fc1_weight_to_fp16, x = input_71_cast_fp16)[name = tensor<string, []>("linear_34_cast_fp16")];
            tensor<string, []> input_75_mode_0 = const()[name = tensor<string, []>("input_75_mode_0"), val = tensor<string, []>("TANH_APPROXIMATION")];
            tensor<fp16, [1, 196, 3072]> input_75_cast_fp16 = gelu(mode = input_75_mode_0, x = linear_34_cast_fp16)[name = tensor<string, []>("input_75_cast_fp16")];
            tensor<fp16, [768, 3072]> model_vision_model_encoder_layers_5_mlp_fc2_weight_to_fp16 = const()[name = tensor<string, []>("model_vision_model_encoder_layers_5_mlp_fc2_weight_to_fp16"), val = tensor<fp16, [768, 3072]>(BLOBFILE(path = tensor<string, []>("@model_path/weights/weight.bin"), offset = tensor<uint64, []>(81822848)))];
            tensor<fp16, [768]> model_vision_model_encoder_layers_5_mlp_fc2_bias_to_fp16 = const()[name = tensor<string, []>("model_vision_model_encoder_layers_5_mlp_fc2_bias_to_fp16"), val = tensor<fp16, [768]>(BLOBFILE(path = tensor<string, []>("@model_path/weights/weight.bin"), offset = tensor<uint64, []>(86541504)))];
            tensor<fp16, [1, 196, 768]> linear_35_cast_fp16 = linear(bias = model_vision_model_encoder_layers_5_mlp_fc2_bias_to_fp16, weight = model_vision_model_encoder_layers_5_mlp_fc2_weight_to_fp16, x = input_75_cast_fp16)[name = tensor<string, []>("linear_35_cast_fp16")];
            tensor<fp16, [1, 196, 768]> input_77_cast_fp16 = add(x = input_69_cast_fp16, y = linear_35_cast_fp16)[name = tensor<string, []>("input_77_cast_fp16")];
            tensor<int32, [1]> hidden_states_37_axes_0 = const()[name = tensor<string, []>("hidden_states_37_axes_0"), val = tensor<int32, [1]>([-1])];
            tensor<fp16, [768]> model_vision_model_encoder_layers_6_layer_norm1_weight_to_fp16 = const()[name = tensor<string, []>("model_vision_model_encoder_layers_6_layer_norm1_weight_to_fp16"), val = tensor<fp16, [768]>(BLOBFILE(path = tensor<string, []>("@model_path/weights/weight.bin"), offset = tensor<uint64, []>(86543104)))];
            tensor<fp16, [768]> model_vision_model_encoder_layers_6_layer_norm1_bias_to_fp16 = const()[name = tensor<string, []>("model_vision_model_encoder_layers_6_layer_norm1_bias_to_fp16"), val = tensor<fp16, [768]>(BLOBFILE(path = tensor<string, []>("@model_path/weights/weight.bin"), offset = tensor<uint64, []>(86544704)))];
            tensor<fp16, [1, 196, 768]> hidden_states_37_cast_fp16 = layer_norm(axes = hidden_states_37_axes_0, beta = model_vision_model_encoder_layers_6_layer_norm1_bias_to_fp16, epsilon = var_12_to_fp16, gamma = model_vision_model_encoder_layers_6_layer_norm1_weight_to_fp16, x = input_77_cast_fp16)[name = tensor<string, []>("hidden_states_37_cast_fp16")];
            tensor<fp16, [768, 768]> model_vision_model_encoder_layers_6_self_attn_q_proj_weight_to_fp16 = const()[name = tensor<string, []>("model_vision_model_encoder_layers_6_self_attn_q_proj_weight_to_fp16"), val = tensor<fp16, [768, 768]>(BLOBFILE(path = tensor<string, []>("@model_path/weights/weight.bin"), offset = tensor<uint64, []>(86546304)))];
            tensor<fp16, [768]> model_vision_model_encoder_layers_6_self_attn_q_proj_bias_to_fp16 = const()[name = tensor<string, []>("model_vision_model_encoder_layers_6_self_attn_q_proj_bias_to_fp16"), val = tensor<fp16, [768]>(BLOBFILE(path = tensor<string, []>("@model_path/weights/weight.bin"), offset = tensor<uint64, []>(87726016)))];
            tensor<fp16, [1, 196, 768]> linear_36_cast_fp16 = linear(bias = model_vision_model_encoder_layers_6_self_attn_q_proj_bias_to_fp16, weight = model_vision_model_encoder_layers_6_self_attn_q_proj_weight_to_fp16, x = hidden_states_37_cast_fp16)[name = tensor<string, []>("linear_36_cast_fp16")];
            tensor<fp16, [768, 768]> model_vision_model_encoder_layers_6_self_attn_k_proj_weight_to_fp16 = const()[name = tensor<string, []>("model_vision_model_encoder_layers_6_self_attn_k_proj_weight_to_fp16"), val = tensor<fp16, [768, 768]>(BLOBFILE(path = tensor<string, []>("@model_path/weights/weight.bin"), offset = tensor<uint64, []>(87727616)))];
            tensor<fp16, [768]> model_vision_model_encoder_layers_6_self_attn_k_proj_bias_to_fp16 = const()[name = tensor<string, []>("model_vision_model_encoder_layers_6_self_attn_k_proj_bias_to_fp16"), val = tensor<fp16, [768]>(BLOBFILE(path = tensor<string, []>("@model_path/weights/weight.bin"), offset = tensor<uint64, []>(88907328)))];
            tensor<fp16, [1, 196, 768]> linear_37_cast_fp16 = linear(bias = model_vision_model_encoder_layers_6_self_attn_k_proj_bias_to_fp16, weight = model_vision_model_encoder_layers_6_self_attn_k_proj_weight_to_fp16, x = hidden_states_37_cast_fp16)[name = tensor<string, []>("linear_37_cast_fp16")];
            tensor<fp16, [768, 768]> model_vision_model_encoder_layers_6_self_attn_v_proj_weight_to_fp16 = const()[name = tensor<string, []>("model_vision_model_encoder_layers_6_self_attn_v_proj_weight_to_fp16"), val = tensor<fp16, [768, 768]>(BLOBFILE(path = tensor<string, []>("@model_path/weights/weight.bin"), offset = tensor<uint64, []>(88908928)))];
            tensor<fp16, [768]> model_vision_model_encoder_layers_6_self_attn_v_proj_bias_to_fp16 = const()[name = tensor<string, []>("model_vision_model_encoder_layers_6_self_attn_v_proj_bias_to_fp16"), val = tensor<fp16, [768]>(BLOBFILE(path = tensor<string, []>("@model_path/weights/weight.bin"), offset = tensor<uint64, []>(90088640)))];
            tensor<fp16, [1, 196, 768]> linear_38_cast_fp16 = linear(bias = model_vision_model_encoder_layers_6_self_attn_v_proj_bias_to_fp16, weight = model_vision_model_encoder_layers_6_self_attn_v_proj_weight_to_fp16, x = hidden_states_37_cast_fp16)[name = tensor<string, []>("linear_38_cast_fp16")];
            tensor<int32, [4]> var_429 = const()[name = tensor<string, []>("op_429"), val = tensor<int32, [4]>([1, 196, 12, 64])];
            tensor<fp16, [1, 196, 12, 64]> var_430_cast_fp16 = reshape(shape = var_429, x = linear_36_cast_fp16)[name = tensor<string, []>("op_430_cast_fp16")];
            tensor<int32, [4]> var_432 = const()[name = tensor<string, []>("op_432"), val = tensor<int32, [4]>([1, 196, 12, 64])];
            tensor<fp16, [1, 196, 12, 64]> var_433_cast_fp16 = reshape(shape = var_432, x = linear_37_cast_fp16)[name = tensor<string, []>("op_433_cast_fp16")];
            tensor<int32, [4]> var_435 = const()[name = tensor<string, []>("op_435"), val = tensor<int32, [4]>([1, 196, 12, 64])];
            tensor<fp16, [1, 196, 12, 64]> var_436_cast_fp16 = reshape(shape = var_435, x = linear_38_cast_fp16)[name = tensor<string, []>("op_436_cast_fp16")];
            tensor<int32, [4]> value_13_perm_0 = const()[name = tensor<string, []>("value_13_perm_0"), val = tensor<int32, [4]>([0, 2, 1, 3])];
            tensor<fp16, [1, 196, 12, 64]> mul_6_cast_fp16 = mul(x = var_430_cast_fp16, y = var_14_to_fp16)[name = tensor<string, []>("mul_6_cast_fp16")];
            tensor<bool, []> matmul_6_transpose_y_0 = const()[name = tensor<string, []>("matmul_6_transpose_y_0"), val = tensor<bool, []>(true)];
            tensor<bool, []> matmul_6_transpose_x_0 = const()[name = tensor<string, []>("matmul_6_transpose_x_0"), val = tensor<bool, []>(false)];
            tensor<int32, [4]> transpose_60_perm_0 = const()[name = tensor<string, []>("transpose_60_perm_0"), val = tensor<int32, [4]>([0, 2, -3, -1])];
            tensor<int32, [4]> transpose_61_perm_0 = const()[name = tensor<string, []>("transpose_61_perm_0"), val = tensor<int32, [4]>([0, 2, -3, -1])];
            tensor<fp16, [1, 12, 196, 64]> transpose_61 = transpose(perm = transpose_61_perm_0, x = var_433_cast_fp16)[name = tensor<string, []>("transpose_93")];
            tensor<fp16, [1, 12, 196, 64]> transpose_60 = transpose(perm = transpose_60_perm_0, x = mul_6_cast_fp16)[name = tensor<string, []>("transpose_94")];
            tensor<fp16, [1, 12, 196, 196]> matmul_6_cast_fp16 = matmul(transpose_x = matmul_6_transpose_x_0, transpose_y = matmul_6_transpose_y_0, x = transpose_60, y = transpose_61)[name = tensor<string, []>("matmul_6_cast_fp16")];
            tensor<int32, []> softmax_6_axis_0 = const()[name = tensor<string, []>("softmax_6_axis_0"), val = tensor<int32, []>(-1)];
            tensor<fp16, [1, 12, 196, 196]> softmax_6_cast_fp16 = softmax(axis = softmax_6_axis_0, x = matmul_6_cast_fp16)[name = tensor<string, []>("softmax_6_cast_fp16")];
            tensor<bool, []> attn_output_25_transpose_x_0 = const()[name = tensor<string, []>("attn_output_25_transpose_x_0"), val = tensor<bool, []>(false)];
            tensor<bool, []> attn_output_25_transpose_y_0 = const()[name = tensor<string, []>("attn_output_25_transpose_y_0"), val = tensor<bool, []>(false)];
            tensor<fp16, [1, 12, 196, 64]> value_13_cast_fp16 = transpose(perm = value_13_perm_0, x = var_436_cast_fp16)[name = tensor<string, []>("transpose_95")];
            tensor<fp16, [1, 12, 196, 64]> attn_output_25_cast_fp16 = matmul(transpose_x = attn_output_25_transpose_x_0, transpose_y = attn_output_25_transpose_y_0, x = softmax_6_cast_fp16, y = value_13_cast_fp16)[name = tensor<string, []>("attn_output_25_cast_fp16")];
            tensor<int32, [4]> var_439_perm_0 = const()[name = tensor<string, []>("op_439_perm_0"), val = tensor<int32, [4]>([0, 2, 1, 3])];
            tensor<int32, [3]> var_441 = const()[name = tensor<string, []>("op_441"), val = tensor<int32, [3]>([1, 196, 768])];
            tensor<fp16, [1, 196, 12, 64]> var_439_cast_fp16 = transpose(perm = var_439_perm_0, x = attn_output_25_cast_fp16)[name = tensor<string, []>("transpose_92")];
            tensor<fp16, [1, 196, 768]> var_442_cast_fp16 = reshape(shape = var_441, x = var_439_cast_fp16)[name = tensor<string, []>("op_442_cast_fp16")];
            tensor<fp16, [768, 768]> model_vision_model_encoder_layers_6_self_attn_out_proj_weight_to_fp16 = const()[name = tensor<string, []>("model_vision_model_encoder_layers_6_self_attn_out_proj_weight_to_fp16"), val = tensor<fp16, [768, 768]>(BLOBFILE(path = tensor<string, []>("@model_path/weights/weight.bin"), offset = tensor<uint64, []>(90090240)))];
            tensor<fp16, [768]> model_vision_model_encoder_layers_6_self_attn_out_proj_bias_to_fp16 = const()[name = tensor<string, []>("model_vision_model_encoder_layers_6_self_attn_out_proj_bias_to_fp16"), val = tensor<fp16, [768]>(BLOBFILE(path = tensor<string, []>("@model_path/weights/weight.bin"), offset = tensor<uint64, []>(91269952)))];
            tensor<fp16, [1, 196, 768]> linear_39_cast_fp16 = linear(bias = model_vision_model_encoder_layers_6_self_attn_out_proj_bias_to_fp16, weight = model_vision_model_encoder_layers_6_self_attn_out_proj_weight_to_fp16, x = var_442_cast_fp16)[name = tensor<string, []>("linear_39_cast_fp16")];
            tensor<fp16, [1, 196, 768]> input_81_cast_fp16 = add(x = input_77_cast_fp16, y = linear_39_cast_fp16)[name = tensor<string, []>("input_81_cast_fp16")];
            tensor<int32, [1]> input_83_axes_0 = const()[name = tensor<string, []>("input_83_axes_0"), val = tensor<int32, [1]>([-1])];
            tensor<fp16, [768]> model_vision_model_encoder_layers_6_layer_norm2_weight_to_fp16 = const()[name = tensor<string, []>("model_vision_model_encoder_layers_6_layer_norm2_weight_to_fp16"), val = tensor<fp16, [768]>(BLOBFILE(path = tensor<string, []>("@model_path/weights/weight.bin"), offset = tensor<uint64, []>(91271552)))];
            tensor<fp16, [768]> model_vision_model_encoder_layers_6_layer_norm2_bias_to_fp16 = const()[name = tensor<string, []>("model_vision_model_encoder_layers_6_layer_norm2_bias_to_fp16"), val = tensor<fp16, [768]>(BLOBFILE(path = tensor<string, []>("@model_path/weights/weight.bin"), offset = tensor<uint64, []>(91273152)))];
            tensor<fp16, [1, 196, 768]> input_83_cast_fp16 = layer_norm(axes = input_83_axes_0, beta = model_vision_model_encoder_layers_6_layer_norm2_bias_to_fp16, epsilon = var_12_to_fp16, gamma = model_vision_model_encoder_layers_6_layer_norm2_weight_to_fp16, x = input_81_cast_fp16)[name = tensor<string, []>("input_83_cast_fp16")];
            tensor<fp16, [3072, 768]> model_vision_model_encoder_layers_6_mlp_fc1_weight_to_fp16 = const()[name = tensor<string, []>("model_vision_model_encoder_layers_6_mlp_fc1_weight_to_fp16"), val = tensor<fp16, [3072, 768]>(BLOBFILE(path = tensor<string, []>("@model_path/weights/weight.bin"), offset = tensor<uint64, []>(91274752)))];
            tensor<fp16, [3072]> model_vision_model_encoder_layers_6_mlp_fc1_bias_to_fp16 = const()[name = tensor<string, []>("model_vision_model_encoder_layers_6_mlp_fc1_bias_to_fp16"), val = tensor<fp16, [3072]>(BLOBFILE(path = tensor<string, []>("@model_path/weights/weight.bin"), offset = tensor<uint64, []>(95993408)))];
            tensor<fp16, [1, 196, 3072]> linear_40_cast_fp16 = linear(bias = model_vision_model_encoder_layers_6_mlp_fc1_bias_to_fp16, weight = model_vision_model_encoder_layers_6_mlp_fc1_weight_to_fp16, x = input_83_cast_fp16)[name = tensor<string, []>("linear_40_cast_fp16")];
            tensor<string, []> input_87_mode_0 = const()[name = tensor<string, []>("input_87_mode_0"), val = tensor<string, []>("TANH_APPROXIMATION")];
            tensor<fp16, [1, 196, 3072]> input_87_cast_fp16 = gelu(mode = input_87_mode_0, x = linear_40_cast_fp16)[name = tensor<string, []>("input_87_cast_fp16")];
            tensor<fp16, [768, 3072]> model_vision_model_encoder_layers_6_mlp_fc2_weight_to_fp16 = const()[name = tensor<string, []>("model_vision_model_encoder_layers_6_mlp_fc2_weight_to_fp16"), val = tensor<fp16, [768, 3072]>(BLOBFILE(path = tensor<string, []>("@model_path/weights/weight.bin"), offset = tensor<uint64, []>(95999616)))];
            tensor<fp16, [768]> model_vision_model_encoder_layers_6_mlp_fc2_bias_to_fp16 = const()[name = tensor<string, []>("model_vision_model_encoder_layers_6_mlp_fc2_bias_to_fp16"), val = tensor<fp16, [768]>(BLOBFILE(path = tensor<string, []>("@model_path/weights/weight.bin"), offset = tensor<uint64, []>(100718272)))];
            tensor<fp16, [1, 196, 768]> linear_41_cast_fp16 = linear(bias = model_vision_model_encoder_layers_6_mlp_fc2_bias_to_fp16, weight = model_vision_model_encoder_layers_6_mlp_fc2_weight_to_fp16, x = input_87_cast_fp16)[name = tensor<string, []>("linear_41_cast_fp16")];
            tensor<fp16, [1, 196, 768]> input_89_cast_fp16 = add(x = input_81_cast_fp16, y = linear_41_cast_fp16)[name = tensor<string, []>("input_89_cast_fp16")];
            tensor<int32, [1]> hidden_states_43_axes_0 = const()[name = tensor<string, []>("hidden_states_43_axes_0"), val = tensor<int32, [1]>([-1])];
            tensor<fp16, [768]> model_vision_model_encoder_layers_7_layer_norm1_weight_to_fp16 = const()[name = tensor<string, []>("model_vision_model_encoder_layers_7_layer_norm1_weight_to_fp16"), val = tensor<fp16, [768]>(BLOBFILE(path = tensor<string, []>("@model_path/weights/weight.bin"), offset = tensor<uint64, []>(100719872)))];
            tensor<fp16, [768]> model_vision_model_encoder_layers_7_layer_norm1_bias_to_fp16 = const()[name = tensor<string, []>("model_vision_model_encoder_layers_7_layer_norm1_bias_to_fp16"), val = tensor<fp16, [768]>(BLOBFILE(path = tensor<string, []>("@model_path/weights/weight.bin"), offset = tensor<uint64, []>(100721472)))];
            tensor<fp16, [1, 196, 768]> hidden_states_43_cast_fp16 = layer_norm(axes = hidden_states_43_axes_0, beta = model_vision_model_encoder_layers_7_layer_norm1_bias_to_fp16, epsilon = var_12_to_fp16, gamma = model_vision_model_encoder_layers_7_layer_norm1_weight_to_fp16, x = input_89_cast_fp16)[name = tensor<string, []>("hidden_states_43_cast_fp16")];
            tensor<fp16, [768, 768]> model_vision_model_encoder_layers_7_self_attn_q_proj_weight_to_fp16 = const()[name = tensor<string, []>("model_vision_model_encoder_layers_7_self_attn_q_proj_weight_to_fp16"), val = tensor<fp16, [768, 768]>(BLOBFILE(path = tensor<string, []>("@model_path/weights/weight.bin"), offset = tensor<uint64, []>(100723072)))];
            tensor<fp16, [768]> model_vision_model_encoder_layers_7_self_attn_q_proj_bias_to_fp16 = const()[name = tensor<string, []>("model_vision_model_encoder_layers_7_self_attn_q_proj_bias_to_fp16"), val = tensor<fp16, [768]>(BLOBFILE(path = tensor<string, []>("@model_path/weights/weight.bin"), offset = tensor<uint64, []>(101902784)))];
            tensor<fp16, [1, 196, 768]> linear_42_cast_fp16 = linear(bias = model_vision_model_encoder_layers_7_self_attn_q_proj_bias_to_fp16, weight = model_vision_model_encoder_layers_7_self_attn_q_proj_weight_to_fp16, x = hidden_states_43_cast_fp16)[name = tensor<string, []>("linear_42_cast_fp16")];
            tensor<fp16, [768, 768]> model_vision_model_encoder_layers_7_self_attn_k_proj_weight_to_fp16 = const()[name = tensor<string, []>("model_vision_model_encoder_layers_7_self_attn_k_proj_weight_to_fp16"), val = tensor<fp16, [768, 768]>(BLOBFILE(path = tensor<string, []>("@model_path/weights/weight.bin"), offset = tensor<uint64, []>(101904384)))];
            tensor<fp16, [768]> model_vision_model_encoder_layers_7_self_attn_k_proj_bias_to_fp16 = const()[name = tensor<string, []>("model_vision_model_encoder_layers_7_self_attn_k_proj_bias_to_fp16"), val = tensor<fp16, [768]>(BLOBFILE(path = tensor<string, []>("@model_path/weights/weight.bin"), offset = tensor<uint64, []>(103084096)))];
            tensor<fp16, [1, 196, 768]> linear_43_cast_fp16 = linear(bias = model_vision_model_encoder_layers_7_self_attn_k_proj_bias_to_fp16, weight = model_vision_model_encoder_layers_7_self_attn_k_proj_weight_to_fp16, x = hidden_states_43_cast_fp16)[name = tensor<string, []>("linear_43_cast_fp16")];
            tensor<fp16, [768, 768]> model_vision_model_encoder_layers_7_self_attn_v_proj_weight_to_fp16 = const()[name = tensor<string, []>("model_vision_model_encoder_layers_7_self_attn_v_proj_weight_to_fp16"), val = tensor<fp16, [768, 768]>(BLOBFILE(path = tensor<string, []>("@model_path/weights/weight.bin"), offset = tensor<uint64, []>(103085696)))];
            tensor<fp16, [768]> model_vision_model_encoder_layers_7_self_attn_v_proj_bias_to_fp16 = const()[name = tensor<string, []>("model_vision_model_encoder_layers_7_self_attn_v_proj_bias_to_fp16"), val = tensor<fp16, [768]>(BLOBFILE(path = tensor<string, []>("@model_path/weights/weight.bin"), offset = tensor<uint64, []>(104265408)))];
            tensor<fp16, [1, 196, 768]> linear_44_cast_fp16 = linear(bias = model_vision_model_encoder_layers_7_self_attn_v_proj_bias_to_fp16, weight = model_vision_model_encoder_layers_7_self_attn_v_proj_weight_to_fp16, x = hidden_states_43_cast_fp16)[name = tensor<string, []>("linear_44_cast_fp16")];
            tensor<int32, [4]> var_486 = const()[name = tensor<string, []>("op_486"), val = tensor<int32, [4]>([1, 196, 12, 64])];
            tensor<fp16, [1, 196, 12, 64]> var_487_cast_fp16 = reshape(shape = var_486, x = linear_42_cast_fp16)[name = tensor<string, []>("op_487_cast_fp16")];
            tensor<int32, [4]> var_489 = const()[name = tensor<string, []>("op_489"), val = tensor<int32, [4]>([1, 196, 12, 64])];
            tensor<fp16, [1, 196, 12, 64]> var_490_cast_fp16 = reshape(shape = var_489, x = linear_43_cast_fp16)[name = tensor<string, []>("op_490_cast_fp16")];
            tensor<int32, [4]> var_492 = const()[name = tensor<string, []>("op_492"), val = tensor<int32, [4]>([1, 196, 12, 64])];
            tensor<fp16, [1, 196, 12, 64]> var_493_cast_fp16 = reshape(shape = var_492, x = linear_44_cast_fp16)[name = tensor<string, []>("op_493_cast_fp16")];
            tensor<int32, [4]> value_15_perm_0 = const()[name = tensor<string, []>("value_15_perm_0"), val = tensor<int32, [4]>([0, 2, 1, 3])];
            tensor<fp16, [1, 196, 12, 64]> mul_7_cast_fp16 = mul(x = var_487_cast_fp16, y = var_14_to_fp16)[name = tensor<string, []>("mul_7_cast_fp16")];
            tensor<bool, []> matmul_7_transpose_y_0 = const()[name = tensor<string, []>("matmul_7_transpose_y_0"), val = tensor<bool, []>(true)];
            tensor<bool, []> matmul_7_transpose_x_0 = const()[name = tensor<string, []>("matmul_7_transpose_x_0"), val = tensor<bool, []>(false)];
            tensor<int32, [4]> transpose_62_perm_0 = const()[name = tensor<string, []>("transpose_62_perm_0"), val = tensor<int32, [4]>([0, 2, -3, -1])];
            tensor<int32, [4]> transpose_63_perm_0 = const()[name = tensor<string, []>("transpose_63_perm_0"), val = tensor<int32, [4]>([0, 2, -3, -1])];
            tensor<fp16, [1, 12, 196, 64]> transpose_63 = transpose(perm = transpose_63_perm_0, x = var_490_cast_fp16)[name = tensor<string, []>("transpose_89")];
            tensor<fp16, [1, 12, 196, 64]> transpose_62 = transpose(perm = transpose_62_perm_0, x = mul_7_cast_fp16)[name = tensor<string, []>("transpose_90")];
            tensor<fp16, [1, 12, 196, 196]> matmul_7_cast_fp16 = matmul(transpose_x = matmul_7_transpose_x_0, transpose_y = matmul_7_transpose_y_0, x = transpose_62, y = transpose_63)[name = tensor<string, []>("matmul_7_cast_fp16")];
            tensor<int32, []> softmax_7_axis_0 = const()[name = tensor<string, []>("softmax_7_axis_0"), val = tensor<int32, []>(-1)];
            tensor<fp16, [1, 12, 196, 196]> softmax_7_cast_fp16 = softmax(axis = softmax_7_axis_0, x = matmul_7_cast_fp16)[name = tensor<string, []>("softmax_7_cast_fp16")];
            tensor<bool, []> attn_output_29_transpose_x_0 = const()[name = tensor<string, []>("attn_output_29_transpose_x_0"), val = tensor<bool, []>(false)];
            tensor<bool, []> attn_output_29_transpose_y_0 = const()[name = tensor<string, []>("attn_output_29_transpose_y_0"), val = tensor<bool, []>(false)];
            tensor<fp16, [1, 12, 196, 64]> value_15_cast_fp16 = transpose(perm = value_15_perm_0, x = var_493_cast_fp16)[name = tensor<string, []>("transpose_91")];
            tensor<fp16, [1, 12, 196, 64]> attn_output_29_cast_fp16 = matmul(transpose_x = attn_output_29_transpose_x_0, transpose_y = attn_output_29_transpose_y_0, x = softmax_7_cast_fp16, y = value_15_cast_fp16)[name = tensor<string, []>("attn_output_29_cast_fp16")];
            tensor<int32, [4]> var_496_perm_0 = const()[name = tensor<string, []>("op_496_perm_0"), val = tensor<int32, [4]>([0, 2, 1, 3])];
            tensor<int32, [3]> var_498 = const()[name = tensor<string, []>("op_498"), val = tensor<int32, [3]>([1, 196, 768])];
            tensor<fp16, [1, 196, 12, 64]> var_496_cast_fp16 = transpose(perm = var_496_perm_0, x = attn_output_29_cast_fp16)[name = tensor<string, []>("transpose_88")];
            tensor<fp16, [1, 196, 768]> var_499_cast_fp16 = reshape(shape = var_498, x = var_496_cast_fp16)[name = tensor<string, []>("op_499_cast_fp16")];
            tensor<fp16, [768, 768]> model_vision_model_encoder_layers_7_self_attn_out_proj_weight_to_fp16 = const()[name = tensor<string, []>("model_vision_model_encoder_layers_7_self_attn_out_proj_weight_to_fp16"), val = tensor<fp16, [768, 768]>(BLOBFILE(path = tensor<string, []>("@model_path/weights/weight.bin"), offset = tensor<uint64, []>(104267008)))];
            tensor<fp16, [768]> model_vision_model_encoder_layers_7_self_attn_out_proj_bias_to_fp16 = const()[name = tensor<string, []>("model_vision_model_encoder_layers_7_self_attn_out_proj_bias_to_fp16"), val = tensor<fp16, [768]>(BLOBFILE(path = tensor<string, []>("@model_path/weights/weight.bin"), offset = tensor<uint64, []>(105446720)))];
            tensor<fp16, [1, 196, 768]> linear_45_cast_fp16 = linear(bias = model_vision_model_encoder_layers_7_self_attn_out_proj_bias_to_fp16, weight = model_vision_model_encoder_layers_7_self_attn_out_proj_weight_to_fp16, x = var_499_cast_fp16)[name = tensor<string, []>("linear_45_cast_fp16")];
            tensor<fp16, [1, 196, 768]> input_93_cast_fp16 = add(x = input_89_cast_fp16, y = linear_45_cast_fp16)[name = tensor<string, []>("input_93_cast_fp16")];
            tensor<int32, [1]> input_95_axes_0 = const()[name = tensor<string, []>("input_95_axes_0"), val = tensor<int32, [1]>([-1])];
            tensor<fp16, [768]> model_vision_model_encoder_layers_7_layer_norm2_weight_to_fp16 = const()[name = tensor<string, []>("model_vision_model_encoder_layers_7_layer_norm2_weight_to_fp16"), val = tensor<fp16, [768]>(BLOBFILE(path = tensor<string, []>("@model_path/weights/weight.bin"), offset = tensor<uint64, []>(105448320)))];
            tensor<fp16, [768]> model_vision_model_encoder_layers_7_layer_norm2_bias_to_fp16 = const()[name = tensor<string, []>("model_vision_model_encoder_layers_7_layer_norm2_bias_to_fp16"), val = tensor<fp16, [768]>(BLOBFILE(path = tensor<string, []>("@model_path/weights/weight.bin"), offset = tensor<uint64, []>(105449920)))];
            tensor<fp16, [1, 196, 768]> input_95_cast_fp16 = layer_norm(axes = input_95_axes_0, beta = model_vision_model_encoder_layers_7_layer_norm2_bias_to_fp16, epsilon = var_12_to_fp16, gamma = model_vision_model_encoder_layers_7_layer_norm2_weight_to_fp16, x = input_93_cast_fp16)[name = tensor<string, []>("input_95_cast_fp16")];
            tensor<fp16, [3072, 768]> model_vision_model_encoder_layers_7_mlp_fc1_weight_to_fp16 = const()[name = tensor<string, []>("model_vision_model_encoder_layers_7_mlp_fc1_weight_to_fp16"), val = tensor<fp16, [3072, 768]>(BLOBFILE(path = tensor<string, []>("@model_path/weights/weight.bin"), offset = tensor<uint64, []>(105451520)))];
            tensor<fp16, [3072]> model_vision_model_encoder_layers_7_mlp_fc1_bias_to_fp16 = const()[name = tensor<string, []>("model_vision_model_encoder_layers_7_mlp_fc1_bias_to_fp16"), val = tensor<fp16, [3072]>(BLOBFILE(path = tensor<string, []>("@model_path/weights/weight.bin"), offset = tensor<uint64, []>(110170176)))];
            tensor<fp16, [1, 196, 3072]> linear_46_cast_fp16 = linear(bias = model_vision_model_encoder_layers_7_mlp_fc1_bias_to_fp16, weight = model_vision_model_encoder_layers_7_mlp_fc1_weight_to_fp16, x = input_95_cast_fp16)[name = tensor<string, []>("linear_46_cast_fp16")];
            tensor<string, []> input_99_mode_0 = const()[name = tensor<string, []>("input_99_mode_0"), val = tensor<string, []>("TANH_APPROXIMATION")];
            tensor<fp16, [1, 196, 3072]> input_99_cast_fp16 = gelu(mode = input_99_mode_0, x = linear_46_cast_fp16)[name = tensor<string, []>("input_99_cast_fp16")];
            tensor<fp16, [768, 3072]> model_vision_model_encoder_layers_7_mlp_fc2_weight_to_fp16 = const()[name = tensor<string, []>("model_vision_model_encoder_layers_7_mlp_fc2_weight_to_fp16"), val = tensor<fp16, [768, 3072]>(BLOBFILE(path = tensor<string, []>("@model_path/weights/weight.bin"), offset = tensor<uint64, []>(110176384)))];
            tensor<fp16, [768]> model_vision_model_encoder_layers_7_mlp_fc2_bias_to_fp16 = const()[name = tensor<string, []>("model_vision_model_encoder_layers_7_mlp_fc2_bias_to_fp16"), val = tensor<fp16, [768]>(BLOBFILE(path = tensor<string, []>("@model_path/weights/weight.bin"), offset = tensor<uint64, []>(114895040)))];
            tensor<fp16, [1, 196, 768]> linear_47_cast_fp16 = linear(bias = model_vision_model_encoder_layers_7_mlp_fc2_bias_to_fp16, weight = model_vision_model_encoder_layers_7_mlp_fc2_weight_to_fp16, x = input_99_cast_fp16)[name = tensor<string, []>("linear_47_cast_fp16")];
            tensor<fp16, [1, 196, 768]> input_101_cast_fp16 = add(x = input_93_cast_fp16, y = linear_47_cast_fp16)[name = tensor<string, []>("input_101_cast_fp16")];
            tensor<int32, [1]> hidden_states_49_axes_0 = const()[name = tensor<string, []>("hidden_states_49_axes_0"), val = tensor<int32, [1]>([-1])];
            tensor<fp16, [768]> model_vision_model_encoder_layers_8_layer_norm1_weight_to_fp16 = const()[name = tensor<string, []>("model_vision_model_encoder_layers_8_layer_norm1_weight_to_fp16"), val = tensor<fp16, [768]>(BLOBFILE(path = tensor<string, []>("@model_path/weights/weight.bin"), offset = tensor<uint64, []>(114896640)))];
            tensor<fp16, [768]> model_vision_model_encoder_layers_8_layer_norm1_bias_to_fp16 = const()[name = tensor<string, []>("model_vision_model_encoder_layers_8_layer_norm1_bias_to_fp16"), val = tensor<fp16, [768]>(BLOBFILE(path = tensor<string, []>("@model_path/weights/weight.bin"), offset = tensor<uint64, []>(114898240)))];
            tensor<fp16, [1, 196, 768]> hidden_states_49_cast_fp16 = layer_norm(axes = hidden_states_49_axes_0, beta = model_vision_model_encoder_layers_8_layer_norm1_bias_to_fp16, epsilon = var_12_to_fp16, gamma = model_vision_model_encoder_layers_8_layer_norm1_weight_to_fp16, x = input_101_cast_fp16)[name = tensor<string, []>("hidden_states_49_cast_fp16")];
            tensor<fp16, [768, 768]> model_vision_model_encoder_layers_8_self_attn_q_proj_weight_to_fp16 = const()[name = tensor<string, []>("model_vision_model_encoder_layers_8_self_attn_q_proj_weight_to_fp16"), val = tensor<fp16, [768, 768]>(BLOBFILE(path = tensor<string, []>("@model_path/weights/weight.bin"), offset = tensor<uint64, []>(114899840)))];
            tensor<fp16, [768]> model_vision_model_encoder_layers_8_self_attn_q_proj_bias_to_fp16 = const()[name = tensor<string, []>("model_vision_model_encoder_layers_8_self_attn_q_proj_bias_to_fp16"), val = tensor<fp16, [768]>(BLOBFILE(path = tensor<string, []>("@model_path/weights/weight.bin"), offset = tensor<uint64, []>(116079552)))];
            tensor<fp16, [1, 196, 768]> linear_48_cast_fp16 = linear(bias = model_vision_model_encoder_layers_8_self_attn_q_proj_bias_to_fp16, weight = model_vision_model_encoder_layers_8_self_attn_q_proj_weight_to_fp16, x = hidden_states_49_cast_fp16)[name = tensor<string, []>("linear_48_cast_fp16")];
            tensor<fp16, [768, 768]> model_vision_model_encoder_layers_8_self_attn_k_proj_weight_to_fp16 = const()[name = tensor<string, []>("model_vision_model_encoder_layers_8_self_attn_k_proj_weight_to_fp16"), val = tensor<fp16, [768, 768]>(BLOBFILE(path = tensor<string, []>("@model_path/weights/weight.bin"), offset = tensor<uint64, []>(116081152)))];
            tensor<fp16, [768]> model_vision_model_encoder_layers_8_self_attn_k_proj_bias_to_fp16 = const()[name = tensor<string, []>("model_vision_model_encoder_layers_8_self_attn_k_proj_bias_to_fp16"), val = tensor<fp16, [768]>(BLOBFILE(path = tensor<string, []>("@model_path/weights/weight.bin"), offset = tensor<uint64, []>(117260864)))];
            tensor<fp16, [1, 196, 768]> linear_49_cast_fp16 = linear(bias = model_vision_model_encoder_layers_8_self_attn_k_proj_bias_to_fp16, weight = model_vision_model_encoder_layers_8_self_attn_k_proj_weight_to_fp16, x = hidden_states_49_cast_fp16)[name = tensor<string, []>("linear_49_cast_fp16")];
            tensor<fp16, [768, 768]> model_vision_model_encoder_layers_8_self_attn_v_proj_weight_to_fp16 = const()[name = tensor<string, []>("model_vision_model_encoder_layers_8_self_attn_v_proj_weight_to_fp16"), val = tensor<fp16, [768, 768]>(BLOBFILE(path = tensor<string, []>("@model_path/weights/weight.bin"), offset = tensor<uint64, []>(117262464)))];
            tensor<fp16, [768]> model_vision_model_encoder_layers_8_self_attn_v_proj_bias_to_fp16 = const()[name = tensor<string, []>("model_vision_model_encoder_layers_8_self_attn_v_proj_bias_to_fp16"), val = tensor<fp16, [768]>(BLOBFILE(path = tensor<string, []>("@model_path/weights/weight.bin"), offset = tensor<uint64, []>(118442176)))];
            tensor<fp16, [1, 196, 768]> linear_50_cast_fp16 = linear(bias = model_vision_model_encoder_layers_8_self_attn_v_proj_bias_to_fp16, weight = model_vision_model_encoder_layers_8_self_attn_v_proj_weight_to_fp16, x = hidden_states_49_cast_fp16)[name = tensor<string, []>("linear_50_cast_fp16")];
            tensor<int32, [4]> var_543 = const()[name = tensor<string, []>("op_543"), val = tensor<int32, [4]>([1, 196, 12, 64])];
            tensor<fp16, [1, 196, 12, 64]> var_544_cast_fp16 = reshape(shape = var_543, x = linear_48_cast_fp16)[name = tensor<string, []>("op_544_cast_fp16")];
            tensor<int32, [4]> var_546 = const()[name = tensor<string, []>("op_546"), val = tensor<int32, [4]>([1, 196, 12, 64])];
            tensor<fp16, [1, 196, 12, 64]> var_547_cast_fp16 = reshape(shape = var_546, x = linear_49_cast_fp16)[name = tensor<string, []>("op_547_cast_fp16")];
            tensor<int32, [4]> var_549 = const()[name = tensor<string, []>("op_549"), val = tensor<int32, [4]>([1, 196, 12, 64])];
            tensor<fp16, [1, 196, 12, 64]> var_550_cast_fp16 = reshape(shape = var_549, x = linear_50_cast_fp16)[name = tensor<string, []>("op_550_cast_fp16")];
            tensor<int32, [4]> value_17_perm_0 = const()[name = tensor<string, []>("value_17_perm_0"), val = tensor<int32, [4]>([0, 2, 1, 3])];
            tensor<fp16, [1, 196, 12, 64]> mul_8_cast_fp16 = mul(x = var_544_cast_fp16, y = var_14_to_fp16)[name = tensor<string, []>("mul_8_cast_fp16")];
            tensor<bool, []> matmul_8_transpose_y_0 = const()[name = tensor<string, []>("matmul_8_transpose_y_0"), val = tensor<bool, []>(true)];
            tensor<bool, []> matmul_8_transpose_x_0 = const()[name = tensor<string, []>("matmul_8_transpose_x_0"), val = tensor<bool, []>(false)];
            tensor<int32, [4]> transpose_64_perm_0 = const()[name = tensor<string, []>("transpose_64_perm_0"), val = tensor<int32, [4]>([0, 2, -3, -1])];
            tensor<int32, [4]> transpose_65_perm_0 = const()[name = tensor<string, []>("transpose_65_perm_0"), val = tensor<int32, [4]>([0, 2, -3, -1])];
            tensor<fp16, [1, 12, 196, 64]> transpose_65 = transpose(perm = transpose_65_perm_0, x = var_547_cast_fp16)[name = tensor<string, []>("transpose_85")];
            tensor<fp16, [1, 12, 196, 64]> transpose_64 = transpose(perm = transpose_64_perm_0, x = mul_8_cast_fp16)[name = tensor<string, []>("transpose_86")];
            tensor<fp16, [1, 12, 196, 196]> matmul_8_cast_fp16 = matmul(transpose_x = matmul_8_transpose_x_0, transpose_y = matmul_8_transpose_y_0, x = transpose_64, y = transpose_65)[name = tensor<string, []>("matmul_8_cast_fp16")];
            tensor<int32, []> softmax_8_axis_0 = const()[name = tensor<string, []>("softmax_8_axis_0"), val = tensor<int32, []>(-1)];
            tensor<fp16, [1, 12, 196, 196]> softmax_8_cast_fp16 = softmax(axis = softmax_8_axis_0, x = matmul_8_cast_fp16)[name = tensor<string, []>("softmax_8_cast_fp16")];
            tensor<bool, []> attn_output_33_transpose_x_0 = const()[name = tensor<string, []>("attn_output_33_transpose_x_0"), val = tensor<bool, []>(false)];
            tensor<bool, []> attn_output_33_transpose_y_0 = const()[name = tensor<string, []>("attn_output_33_transpose_y_0"), val = tensor<bool, []>(false)];
            tensor<fp16, [1, 12, 196, 64]> value_17_cast_fp16 = transpose(perm = value_17_perm_0, x = var_550_cast_fp16)[name = tensor<string, []>("transpose_87")];
            tensor<fp16, [1, 12, 196, 64]> attn_output_33_cast_fp16 = matmul(transpose_x = attn_output_33_transpose_x_0, transpose_y = attn_output_33_transpose_y_0, x = softmax_8_cast_fp16, y = value_17_cast_fp16)[name = tensor<string, []>("attn_output_33_cast_fp16")];
            tensor<int32, [4]> var_553_perm_0 = const()[name = tensor<string, []>("op_553_perm_0"), val = tensor<int32, [4]>([0, 2, 1, 3])];
            tensor<int32, [3]> var_555 = const()[name = tensor<string, []>("op_555"), val = tensor<int32, [3]>([1, 196, 768])];
            tensor<fp16, [1, 196, 12, 64]> var_553_cast_fp16 = transpose(perm = var_553_perm_0, x = attn_output_33_cast_fp16)[name = tensor<string, []>("transpose_84")];
            tensor<fp16, [1, 196, 768]> var_556_cast_fp16 = reshape(shape = var_555, x = var_553_cast_fp16)[name = tensor<string, []>("op_556_cast_fp16")];
            tensor<fp16, [768, 768]> model_vision_model_encoder_layers_8_self_attn_out_proj_weight_to_fp16 = const()[name = tensor<string, []>("model_vision_model_encoder_layers_8_self_attn_out_proj_weight_to_fp16"), val = tensor<fp16, [768, 768]>(BLOBFILE(path = tensor<string, []>("@model_path/weights/weight.bin"), offset = tensor<uint64, []>(118443776)))];
            tensor<fp16, [768]> model_vision_model_encoder_layers_8_self_attn_out_proj_bias_to_fp16 = const()[name = tensor<string, []>("model_vision_model_encoder_layers_8_self_attn_out_proj_bias_to_fp16"), val = tensor<fp16, [768]>(BLOBFILE(path = tensor<string, []>("@model_path/weights/weight.bin"), offset = tensor<uint64, []>(119623488)))];
            tensor<fp16, [1, 196, 768]> linear_51_cast_fp16 = linear(bias = model_vision_model_encoder_layers_8_self_attn_out_proj_bias_to_fp16, weight = model_vision_model_encoder_layers_8_self_attn_out_proj_weight_to_fp16, x = var_556_cast_fp16)[name = tensor<string, []>("linear_51_cast_fp16")];
            tensor<fp16, [1, 196, 768]> input_105_cast_fp16 = add(x = input_101_cast_fp16, y = linear_51_cast_fp16)[name = tensor<string, []>("input_105_cast_fp16")];
            tensor<int32, [1]> input_107_axes_0 = const()[name = tensor<string, []>("input_107_axes_0"), val = tensor<int32, [1]>([-1])];
            tensor<fp16, [768]> model_vision_model_encoder_layers_8_layer_norm2_weight_to_fp16 = const()[name = tensor<string, []>("model_vision_model_encoder_layers_8_layer_norm2_weight_to_fp16"), val = tensor<fp16, [768]>(BLOBFILE(path = tensor<string, []>("@model_path/weights/weight.bin"), offset = tensor<uint64, []>(119625088)))];
            tensor<fp16, [768]> model_vision_model_encoder_layers_8_layer_norm2_bias_to_fp16 = const()[name = tensor<string, []>("model_vision_model_encoder_layers_8_layer_norm2_bias_to_fp16"), val = tensor<fp16, [768]>(BLOBFILE(path = tensor<string, []>("@model_path/weights/weight.bin"), offset = tensor<uint64, []>(119626688)))];
            tensor<fp16, [1, 196, 768]> input_107_cast_fp16 = layer_norm(axes = input_107_axes_0, beta = model_vision_model_encoder_layers_8_layer_norm2_bias_to_fp16, epsilon = var_12_to_fp16, gamma = model_vision_model_encoder_layers_8_layer_norm2_weight_to_fp16, x = input_105_cast_fp16)[name = tensor<string, []>("input_107_cast_fp16")];
            tensor<fp16, [3072, 768]> model_vision_model_encoder_layers_8_mlp_fc1_weight_to_fp16 = const()[name = tensor<string, []>("model_vision_model_encoder_layers_8_mlp_fc1_weight_to_fp16"), val = tensor<fp16, [3072, 768]>(BLOBFILE(path = tensor<string, []>("@model_path/weights/weight.bin"), offset = tensor<uint64, []>(119628288)))];
            tensor<fp16, [3072]> model_vision_model_encoder_layers_8_mlp_fc1_bias_to_fp16 = const()[name = tensor<string, []>("model_vision_model_encoder_layers_8_mlp_fc1_bias_to_fp16"), val = tensor<fp16, [3072]>(BLOBFILE(path = tensor<string, []>("@model_path/weights/weight.bin"), offset = tensor<uint64, []>(124346944)))];
            tensor<fp16, [1, 196, 3072]> linear_52_cast_fp16 = linear(bias = model_vision_model_encoder_layers_8_mlp_fc1_bias_to_fp16, weight = model_vision_model_encoder_layers_8_mlp_fc1_weight_to_fp16, x = input_107_cast_fp16)[name = tensor<string, []>("linear_52_cast_fp16")];
            tensor<string, []> input_111_mode_0 = const()[name = tensor<string, []>("input_111_mode_0"), val = tensor<string, []>("TANH_APPROXIMATION")];
            tensor<fp16, [1, 196, 3072]> input_111_cast_fp16 = gelu(mode = input_111_mode_0, x = linear_52_cast_fp16)[name = tensor<string, []>("input_111_cast_fp16")];
            tensor<fp16, [768, 3072]> model_vision_model_encoder_layers_8_mlp_fc2_weight_to_fp16 = const()[name = tensor<string, []>("model_vision_model_encoder_layers_8_mlp_fc2_weight_to_fp16"), val = tensor<fp16, [768, 3072]>(BLOBFILE(path = tensor<string, []>("@model_path/weights/weight.bin"), offset = tensor<uint64, []>(124353152)))];
            tensor<fp16, [768]> model_vision_model_encoder_layers_8_mlp_fc2_bias_to_fp16 = const()[name = tensor<string, []>("model_vision_model_encoder_layers_8_mlp_fc2_bias_to_fp16"), val = tensor<fp16, [768]>(BLOBFILE(path = tensor<string, []>("@model_path/weights/weight.bin"), offset = tensor<uint64, []>(129071808)))];
            tensor<fp16, [1, 196, 768]> linear_53_cast_fp16 = linear(bias = model_vision_model_encoder_layers_8_mlp_fc2_bias_to_fp16, weight = model_vision_model_encoder_layers_8_mlp_fc2_weight_to_fp16, x = input_111_cast_fp16)[name = tensor<string, []>("linear_53_cast_fp16")];
            tensor<fp16, [1, 196, 768]> input_113_cast_fp16 = add(x = input_105_cast_fp16, y = linear_53_cast_fp16)[name = tensor<string, []>("input_113_cast_fp16")];
            tensor<int32, [1]> hidden_states_55_axes_0 = const()[name = tensor<string, []>("hidden_states_55_axes_0"), val = tensor<int32, [1]>([-1])];
            tensor<fp16, [768]> model_vision_model_encoder_layers_9_layer_norm1_weight_to_fp16 = const()[name = tensor<string, []>("model_vision_model_encoder_layers_9_layer_norm1_weight_to_fp16"), val = tensor<fp16, [768]>(BLOBFILE(path = tensor<string, []>("@model_path/weights/weight.bin"), offset = tensor<uint64, []>(129073408)))];
            tensor<fp16, [768]> model_vision_model_encoder_layers_9_layer_norm1_bias_to_fp16 = const()[name = tensor<string, []>("model_vision_model_encoder_layers_9_layer_norm1_bias_to_fp16"), val = tensor<fp16, [768]>(BLOBFILE(path = tensor<string, []>("@model_path/weights/weight.bin"), offset = tensor<uint64, []>(129075008)))];
            tensor<fp16, [1, 196, 768]> hidden_states_55_cast_fp16 = layer_norm(axes = hidden_states_55_axes_0, beta = model_vision_model_encoder_layers_9_layer_norm1_bias_to_fp16, epsilon = var_12_to_fp16, gamma = model_vision_model_encoder_layers_9_layer_norm1_weight_to_fp16, x = input_113_cast_fp16)[name = tensor<string, []>("hidden_states_55_cast_fp16")];
            tensor<fp16, [768, 768]> model_vision_model_encoder_layers_9_self_attn_q_proj_weight_to_fp16 = const()[name = tensor<string, []>("model_vision_model_encoder_layers_9_self_attn_q_proj_weight_to_fp16"), val = tensor<fp16, [768, 768]>(BLOBFILE(path = tensor<string, []>("@model_path/weights/weight.bin"), offset = tensor<uint64, []>(129076608)))];
            tensor<fp16, [768]> model_vision_model_encoder_layers_9_self_attn_q_proj_bias_to_fp16 = const()[name = tensor<string, []>("model_vision_model_encoder_layers_9_self_attn_q_proj_bias_to_fp16"), val = tensor<fp16, [768]>(BLOBFILE(path = tensor<string, []>("@model_path/weights/weight.bin"), offset = tensor<uint64, []>(130256320)))];
            tensor<fp16, [1, 196, 768]> linear_54_cast_fp16 = linear(bias = model_vision_model_encoder_layers_9_self_attn_q_proj_bias_to_fp16, weight = model_vision_model_encoder_layers_9_self_attn_q_proj_weight_to_fp16, x = hidden_states_55_cast_fp16)[name = tensor<string, []>("linear_54_cast_fp16")];
            tensor<fp16, [768, 768]> model_vision_model_encoder_layers_9_self_attn_k_proj_weight_to_fp16 = const()[name = tensor<string, []>("model_vision_model_encoder_layers_9_self_attn_k_proj_weight_to_fp16"), val = tensor<fp16, [768, 768]>(BLOBFILE(path = tensor<string, []>("@model_path/weights/weight.bin"), offset = tensor<uint64, []>(130257920)))];
            tensor<fp16, [768]> model_vision_model_encoder_layers_9_self_attn_k_proj_bias_to_fp16 = const()[name = tensor<string, []>("model_vision_model_encoder_layers_9_self_attn_k_proj_bias_to_fp16"), val = tensor<fp16, [768]>(BLOBFILE(path = tensor<string, []>("@model_path/weights/weight.bin"), offset = tensor<uint64, []>(131437632)))];
            tensor<fp16, [1, 196, 768]> linear_55_cast_fp16 = linear(bias = model_vision_model_encoder_layers_9_self_attn_k_proj_bias_to_fp16, weight = model_vision_model_encoder_layers_9_self_attn_k_proj_weight_to_fp16, x = hidden_states_55_cast_fp16)[name = tensor<string, []>("linear_55_cast_fp16")];
            tensor<fp16, [768, 768]> model_vision_model_encoder_layers_9_self_attn_v_proj_weight_to_fp16 = const()[name = tensor<string, []>("model_vision_model_encoder_layers_9_self_attn_v_proj_weight_to_fp16"), val = tensor<fp16, [768, 768]>(BLOBFILE(path = tensor<string, []>("@model_path/weights/weight.bin"), offset = tensor<uint64, []>(131439232)))];
            tensor<fp16, [768]> model_vision_model_encoder_layers_9_self_attn_v_proj_bias_to_fp16 = const()[name = tensor<string, []>("model_vision_model_encoder_layers_9_self_attn_v_proj_bias_to_fp16"), val = tensor<fp16, [768]>(BLOBFILE(path = tensor<string, []>("@model_path/weights/weight.bin"), offset = tensor<uint64, []>(132618944)))];
            tensor<fp16, [1, 196, 768]> linear_56_cast_fp16 = linear(bias = model_vision_model_encoder_layers_9_self_attn_v_proj_bias_to_fp16, weight = model_vision_model_encoder_layers_9_self_attn_v_proj_weight_to_fp16, x = hidden_states_55_cast_fp16)[name = tensor<string, []>("linear_56_cast_fp16")];
            tensor<int32, [4]> var_600 = const()[name = tensor<string, []>("op_600"), val = tensor<int32, [4]>([1, 196, 12, 64])];
            tensor<fp16, [1, 196, 12, 64]> var_601_cast_fp16 = reshape(shape = var_600, x = linear_54_cast_fp16)[name = tensor<string, []>("op_601_cast_fp16")];
            tensor<int32, [4]> var_603 = const()[name = tensor<string, []>("op_603"), val = tensor<int32, [4]>([1, 196, 12, 64])];
            tensor<fp16, [1, 196, 12, 64]> var_604_cast_fp16 = reshape(shape = var_603, x = linear_55_cast_fp16)[name = tensor<string, []>("op_604_cast_fp16")];
            tensor<int32, [4]> var_606 = const()[name = tensor<string, []>("op_606"), val = tensor<int32, [4]>([1, 196, 12, 64])];
            tensor<fp16, [1, 196, 12, 64]> var_607_cast_fp16 = reshape(shape = var_606, x = linear_56_cast_fp16)[name = tensor<string, []>("op_607_cast_fp16")];
            tensor<int32, [4]> value_19_perm_0 = const()[name = tensor<string, []>("value_19_perm_0"), val = tensor<int32, [4]>([0, 2, 1, 3])];
            tensor<fp16, [1, 196, 12, 64]> mul_9_cast_fp16 = mul(x = var_601_cast_fp16, y = var_14_to_fp16)[name = tensor<string, []>("mul_9_cast_fp16")];
            tensor<bool, []> matmul_9_transpose_y_0 = const()[name = tensor<string, []>("matmul_9_transpose_y_0"), val = tensor<bool, []>(true)];
            tensor<bool, []> matmul_9_transpose_x_0 = const()[name = tensor<string, []>("matmul_9_transpose_x_0"), val = tensor<bool, []>(false)];
            tensor<int32, [4]> transpose_66_perm_0 = const()[name = tensor<string, []>("transpose_66_perm_0"), val = tensor<int32, [4]>([0, 2, -3, -1])];
            tensor<int32, [4]> transpose_67_perm_0 = const()[name = tensor<string, []>("transpose_67_perm_0"), val = tensor<int32, [4]>([0, 2, -3, -1])];
            tensor<fp16, [1, 12, 196, 64]> transpose_67 = transpose(perm = transpose_67_perm_0, x = var_604_cast_fp16)[name = tensor<string, []>("transpose_81")];
            tensor<fp16, [1, 12, 196, 64]> transpose_66 = transpose(perm = transpose_66_perm_0, x = mul_9_cast_fp16)[name = tensor<string, []>("transpose_82")];
            tensor<fp16, [1, 12, 196, 196]> matmul_9_cast_fp16 = matmul(transpose_x = matmul_9_transpose_x_0, transpose_y = matmul_9_transpose_y_0, x = transpose_66, y = transpose_67)[name = tensor<string, []>("matmul_9_cast_fp16")];
            tensor<int32, []> softmax_9_axis_0 = const()[name = tensor<string, []>("softmax_9_axis_0"), val = tensor<int32, []>(-1)];
            tensor<fp16, [1, 12, 196, 196]> softmax_9_cast_fp16 = softmax(axis = softmax_9_axis_0, x = matmul_9_cast_fp16)[name = tensor<string, []>("softmax_9_cast_fp16")];
            tensor<bool, []> attn_output_37_transpose_x_0 = const()[name = tensor<string, []>("attn_output_37_transpose_x_0"), val = tensor<bool, []>(false)];
            tensor<bool, []> attn_output_37_transpose_y_0 = const()[name = tensor<string, []>("attn_output_37_transpose_y_0"), val = tensor<bool, []>(false)];
            tensor<fp16, [1, 12, 196, 64]> value_19_cast_fp16 = transpose(perm = value_19_perm_0, x = var_607_cast_fp16)[name = tensor<string, []>("transpose_83")];
            tensor<fp16, [1, 12, 196, 64]> attn_output_37_cast_fp16 = matmul(transpose_x = attn_output_37_transpose_x_0, transpose_y = attn_output_37_transpose_y_0, x = softmax_9_cast_fp16, y = value_19_cast_fp16)[name = tensor<string, []>("attn_output_37_cast_fp16")];
            tensor<int32, [4]> var_610_perm_0 = const()[name = tensor<string, []>("op_610_perm_0"), val = tensor<int32, [4]>([0, 2, 1, 3])];
            tensor<int32, [3]> var_612 = const()[name = tensor<string, []>("op_612"), val = tensor<int32, [3]>([1, 196, 768])];
            tensor<fp16, [1, 196, 12, 64]> var_610_cast_fp16 = transpose(perm = var_610_perm_0, x = attn_output_37_cast_fp16)[name = tensor<string, []>("transpose_80")];
            tensor<fp16, [1, 196, 768]> var_613_cast_fp16 = reshape(shape = var_612, x = var_610_cast_fp16)[name = tensor<string, []>("op_613_cast_fp16")];
            tensor<fp16, [768, 768]> model_vision_model_encoder_layers_9_self_attn_out_proj_weight_to_fp16 = const()[name = tensor<string, []>("model_vision_model_encoder_layers_9_self_attn_out_proj_weight_to_fp16"), val = tensor<fp16, [768, 768]>(BLOBFILE(path = tensor<string, []>("@model_path/weights/weight.bin"), offset = tensor<uint64, []>(132620544)))];
            tensor<fp16, [768]> model_vision_model_encoder_layers_9_self_attn_out_proj_bias_to_fp16 = const()[name = tensor<string, []>("model_vision_model_encoder_layers_9_self_attn_out_proj_bias_to_fp16"), val = tensor<fp16, [768]>(BLOBFILE(path = tensor<string, []>("@model_path/weights/weight.bin"), offset = tensor<uint64, []>(133800256)))];
            tensor<fp16, [1, 196, 768]> linear_57_cast_fp16 = linear(bias = model_vision_model_encoder_layers_9_self_attn_out_proj_bias_to_fp16, weight = model_vision_model_encoder_layers_9_self_attn_out_proj_weight_to_fp16, x = var_613_cast_fp16)[name = tensor<string, []>("linear_57_cast_fp16")];
            tensor<fp16, [1, 196, 768]> input_117_cast_fp16 = add(x = input_113_cast_fp16, y = linear_57_cast_fp16)[name = tensor<string, []>("input_117_cast_fp16")];
            tensor<int32, [1]> input_119_axes_0 = const()[name = tensor<string, []>("input_119_axes_0"), val = tensor<int32, [1]>([-1])];
            tensor<fp16, [768]> model_vision_model_encoder_layers_9_layer_norm2_weight_to_fp16 = const()[name = tensor<string, []>("model_vision_model_encoder_layers_9_layer_norm2_weight_to_fp16"), val = tensor<fp16, [768]>(BLOBFILE(path = tensor<string, []>("@model_path/weights/weight.bin"), offset = tensor<uint64, []>(133801856)))];
            tensor<fp16, [768]> model_vision_model_encoder_layers_9_layer_norm2_bias_to_fp16 = const()[name = tensor<string, []>("model_vision_model_encoder_layers_9_layer_norm2_bias_to_fp16"), val = tensor<fp16, [768]>(BLOBFILE(path = tensor<string, []>("@model_path/weights/weight.bin"), offset = tensor<uint64, []>(133803456)))];
            tensor<fp16, [1, 196, 768]> input_119_cast_fp16 = layer_norm(axes = input_119_axes_0, beta = model_vision_model_encoder_layers_9_layer_norm2_bias_to_fp16, epsilon = var_12_to_fp16, gamma = model_vision_model_encoder_layers_9_layer_norm2_weight_to_fp16, x = input_117_cast_fp16)[name = tensor<string, []>("input_119_cast_fp16")];
            tensor<fp16, [3072, 768]> model_vision_model_encoder_layers_9_mlp_fc1_weight_to_fp16 = const()[name = tensor<string, []>("model_vision_model_encoder_layers_9_mlp_fc1_weight_to_fp16"), val = tensor<fp16, [3072, 768]>(BLOBFILE(path = tensor<string, []>("@model_path/weights/weight.bin"), offset = tensor<uint64, []>(133805056)))];
            tensor<fp16, [3072]> model_vision_model_encoder_layers_9_mlp_fc1_bias_to_fp16 = const()[name = tensor<string, []>("model_vision_model_encoder_layers_9_mlp_fc1_bias_to_fp16"), val = tensor<fp16, [3072]>(BLOBFILE(path = tensor<string, []>("@model_path/weights/weight.bin"), offset = tensor<uint64, []>(138523712)))];
            tensor<fp16, [1, 196, 3072]> linear_58_cast_fp16 = linear(bias = model_vision_model_encoder_layers_9_mlp_fc1_bias_to_fp16, weight = model_vision_model_encoder_layers_9_mlp_fc1_weight_to_fp16, x = input_119_cast_fp16)[name = tensor<string, []>("linear_58_cast_fp16")];
            tensor<string, []> input_123_mode_0 = const()[name = tensor<string, []>("input_123_mode_0"), val = tensor<string, []>("TANH_APPROXIMATION")];
            tensor<fp16, [1, 196, 3072]> input_123_cast_fp16 = gelu(mode = input_123_mode_0, x = linear_58_cast_fp16)[name = tensor<string, []>("input_123_cast_fp16")];
            tensor<fp16, [768, 3072]> model_vision_model_encoder_layers_9_mlp_fc2_weight_to_fp16 = const()[name = tensor<string, []>("model_vision_model_encoder_layers_9_mlp_fc2_weight_to_fp16"), val = tensor<fp16, [768, 3072]>(BLOBFILE(path = tensor<string, []>("@model_path/weights/weight.bin"), offset = tensor<uint64, []>(138529920)))];
            tensor<fp16, [768]> model_vision_model_encoder_layers_9_mlp_fc2_bias_to_fp16 = const()[name = tensor<string, []>("model_vision_model_encoder_layers_9_mlp_fc2_bias_to_fp16"), val = tensor<fp16, [768]>(BLOBFILE(path = tensor<string, []>("@model_path/weights/weight.bin"), offset = tensor<uint64, []>(143248576)))];
            tensor<fp16, [1, 196, 768]> linear_59_cast_fp16 = linear(bias = model_vision_model_encoder_layers_9_mlp_fc2_bias_to_fp16, weight = model_vision_model_encoder_layers_9_mlp_fc2_weight_to_fp16, x = input_123_cast_fp16)[name = tensor<string, []>("linear_59_cast_fp16")];
            tensor<fp16, [1, 196, 768]> input_125_cast_fp16 = add(x = input_117_cast_fp16, y = linear_59_cast_fp16)[name = tensor<string, []>("input_125_cast_fp16")];
            tensor<int32, [1]> hidden_states_61_axes_0 = const()[name = tensor<string, []>("hidden_states_61_axes_0"), val = tensor<int32, [1]>([-1])];
            tensor<fp16, [768]> model_vision_model_encoder_layers_10_layer_norm1_weight_to_fp16 = const()[name = tensor<string, []>("model_vision_model_encoder_layers_10_layer_norm1_weight_to_fp16"), val = tensor<fp16, [768]>(BLOBFILE(path = tensor<string, []>("@model_path/weights/weight.bin"), offset = tensor<uint64, []>(143250176)))];
            tensor<fp16, [768]> model_vision_model_encoder_layers_10_layer_norm1_bias_to_fp16 = const()[name = tensor<string, []>("model_vision_model_encoder_layers_10_layer_norm1_bias_to_fp16"), val = tensor<fp16, [768]>(BLOBFILE(path = tensor<string, []>("@model_path/weights/weight.bin"), offset = tensor<uint64, []>(143251776)))];
            tensor<fp16, [1, 196, 768]> hidden_states_61_cast_fp16 = layer_norm(axes = hidden_states_61_axes_0, beta = model_vision_model_encoder_layers_10_layer_norm1_bias_to_fp16, epsilon = var_12_to_fp16, gamma = model_vision_model_encoder_layers_10_layer_norm1_weight_to_fp16, x = input_125_cast_fp16)[name = tensor<string, []>("hidden_states_61_cast_fp16")];
            tensor<fp16, [768, 768]> model_vision_model_encoder_layers_10_self_attn_q_proj_weight_to_fp16 = const()[name = tensor<string, []>("model_vision_model_encoder_layers_10_self_attn_q_proj_weight_to_fp16"), val = tensor<fp16, [768, 768]>(BLOBFILE(path = tensor<string, []>("@model_path/weights/weight.bin"), offset = tensor<uint64, []>(143253376)))];
            tensor<fp16, [768]> model_vision_model_encoder_layers_10_self_attn_q_proj_bias_to_fp16 = const()[name = tensor<string, []>("model_vision_model_encoder_layers_10_self_attn_q_proj_bias_to_fp16"), val = tensor<fp16, [768]>(BLOBFILE(path = tensor<string, []>("@model_path/weights/weight.bin"), offset = tensor<uint64, []>(144433088)))];
            tensor<fp16, [1, 196, 768]> linear_60_cast_fp16 = linear(bias = model_vision_model_encoder_layers_10_self_attn_q_proj_bias_to_fp16, weight = model_vision_model_encoder_layers_10_self_attn_q_proj_weight_to_fp16, x = hidden_states_61_cast_fp16)[name = tensor<string, []>("linear_60_cast_fp16")];
            tensor<fp16, [768, 768]> model_vision_model_encoder_layers_10_self_attn_k_proj_weight_to_fp16 = const()[name = tensor<string, []>("model_vision_model_encoder_layers_10_self_attn_k_proj_weight_to_fp16"), val = tensor<fp16, [768, 768]>(BLOBFILE(path = tensor<string, []>("@model_path/weights/weight.bin"), offset = tensor<uint64, []>(144434688)))];
            tensor<fp16, [768]> model_vision_model_encoder_layers_10_self_attn_k_proj_bias_to_fp16 = const()[name = tensor<string, []>("model_vision_model_encoder_layers_10_self_attn_k_proj_bias_to_fp16"), val = tensor<fp16, [768]>(BLOBFILE(path = tensor<string, []>("@model_path/weights/weight.bin"), offset = tensor<uint64, []>(145614400)))];
            tensor<fp16, [1, 196, 768]> linear_61_cast_fp16 = linear(bias = model_vision_model_encoder_layers_10_self_attn_k_proj_bias_to_fp16, weight = model_vision_model_encoder_layers_10_self_attn_k_proj_weight_to_fp16, x = hidden_states_61_cast_fp16)[name = tensor<string, []>("linear_61_cast_fp16")];
            tensor<fp16, [768, 768]> model_vision_model_encoder_layers_10_self_attn_v_proj_weight_to_fp16 = const()[name = tensor<string, []>("model_vision_model_encoder_layers_10_self_attn_v_proj_weight_to_fp16"), val = tensor<fp16, [768, 768]>(BLOBFILE(path = tensor<string, []>("@model_path/weights/weight.bin"), offset = tensor<uint64, []>(145616000)))];
            tensor<fp16, [768]> model_vision_model_encoder_layers_10_self_attn_v_proj_bias_to_fp16 = const()[name = tensor<string, []>("model_vision_model_encoder_layers_10_self_attn_v_proj_bias_to_fp16"), val = tensor<fp16, [768]>(BLOBFILE(path = tensor<string, []>("@model_path/weights/weight.bin"), offset = tensor<uint64, []>(146795712)))];
            tensor<fp16, [1, 196, 768]> linear_62_cast_fp16 = linear(bias = model_vision_model_encoder_layers_10_self_attn_v_proj_bias_to_fp16, weight = model_vision_model_encoder_layers_10_self_attn_v_proj_weight_to_fp16, x = hidden_states_61_cast_fp16)[name = tensor<string, []>("linear_62_cast_fp16")];
            tensor<int32, [4]> var_657 = const()[name = tensor<string, []>("op_657"), val = tensor<int32, [4]>([1, 196, 12, 64])];
            tensor<fp16, [1, 196, 12, 64]> var_658_cast_fp16 = reshape(shape = var_657, x = linear_60_cast_fp16)[name = tensor<string, []>("op_658_cast_fp16")];
            tensor<int32, [4]> var_660 = const()[name = tensor<string, []>("op_660"), val = tensor<int32, [4]>([1, 196, 12, 64])];
            tensor<fp16, [1, 196, 12, 64]> var_661_cast_fp16 = reshape(shape = var_660, x = linear_61_cast_fp16)[name = tensor<string, []>("op_661_cast_fp16")];
            tensor<int32, [4]> var_663 = const()[name = tensor<string, []>("op_663"), val = tensor<int32, [4]>([1, 196, 12, 64])];
            tensor<fp16, [1, 196, 12, 64]> var_664_cast_fp16 = reshape(shape = var_663, x = linear_62_cast_fp16)[name = tensor<string, []>("op_664_cast_fp16")];
            tensor<int32, [4]> value_21_perm_0 = const()[name = tensor<string, []>("value_21_perm_0"), val = tensor<int32, [4]>([0, 2, 1, 3])];
            tensor<fp16, [1, 196, 12, 64]> mul_10_cast_fp16 = mul(x = var_658_cast_fp16, y = var_14_to_fp16)[name = tensor<string, []>("mul_10_cast_fp16")];
            tensor<bool, []> matmul_10_transpose_y_0 = const()[name = tensor<string, []>("matmul_10_transpose_y_0"), val = tensor<bool, []>(true)];
            tensor<bool, []> matmul_10_transpose_x_0 = const()[name = tensor<string, []>("matmul_10_transpose_x_0"), val = tensor<bool, []>(false)];
            tensor<int32, [4]> transpose_68_perm_0 = const()[name = tensor<string, []>("transpose_68_perm_0"), val = tensor<int32, [4]>([0, 2, -3, -1])];
            tensor<int32, [4]> transpose_69_perm_0 = const()[name = tensor<string, []>("transpose_69_perm_0"), val = tensor<int32, [4]>([0, 2, -3, -1])];
            tensor<fp16, [1, 12, 196, 64]> transpose_69 = transpose(perm = transpose_69_perm_0, x = var_661_cast_fp16)[name = tensor<string, []>("transpose_77")];
            tensor<fp16, [1, 12, 196, 64]> transpose_68 = transpose(perm = transpose_68_perm_0, x = mul_10_cast_fp16)[name = tensor<string, []>("transpose_78")];
            tensor<fp16, [1, 12, 196, 196]> matmul_10_cast_fp16 = matmul(transpose_x = matmul_10_transpose_x_0, transpose_y = matmul_10_transpose_y_0, x = transpose_68, y = transpose_69)[name = tensor<string, []>("matmul_10_cast_fp16")];
            tensor<int32, []> softmax_10_axis_0 = const()[name = tensor<string, []>("softmax_10_axis_0"), val = tensor<int32, []>(-1)];
            tensor<fp16, [1, 12, 196, 196]> softmax_10_cast_fp16 = softmax(axis = softmax_10_axis_0, x = matmul_10_cast_fp16)[name = tensor<string, []>("softmax_10_cast_fp16")];
            tensor<bool, []> attn_output_41_transpose_x_0 = const()[name = tensor<string, []>("attn_output_41_transpose_x_0"), val = tensor<bool, []>(false)];
            tensor<bool, []> attn_output_41_transpose_y_0 = const()[name = tensor<string, []>("attn_output_41_transpose_y_0"), val = tensor<bool, []>(false)];
            tensor<fp16, [1, 12, 196, 64]> value_21_cast_fp16 = transpose(perm = value_21_perm_0, x = var_664_cast_fp16)[name = tensor<string, []>("transpose_79")];
            tensor<fp16, [1, 12, 196, 64]> attn_output_41_cast_fp16 = matmul(transpose_x = attn_output_41_transpose_x_0, transpose_y = attn_output_41_transpose_y_0, x = softmax_10_cast_fp16, y = value_21_cast_fp16)[name = tensor<string, []>("attn_output_41_cast_fp16")];
            tensor<int32, [4]> var_667_perm_0 = const()[name = tensor<string, []>("op_667_perm_0"), val = tensor<int32, [4]>([0, 2, 1, 3])];
            tensor<int32, [3]> var_669 = const()[name = tensor<string, []>("op_669"), val = tensor<int32, [3]>([1, 196, 768])];
            tensor<fp16, [1, 196, 12, 64]> var_667_cast_fp16 = transpose(perm = var_667_perm_0, x = attn_output_41_cast_fp16)[name = tensor<string, []>("transpose_76")];
            tensor<fp16, [1, 196, 768]> var_670_cast_fp16 = reshape(shape = var_669, x = var_667_cast_fp16)[name = tensor<string, []>("op_670_cast_fp16")];
            tensor<fp16, [768, 768]> model_vision_model_encoder_layers_10_self_attn_out_proj_weight_to_fp16 = const()[name = tensor<string, []>("model_vision_model_encoder_layers_10_self_attn_out_proj_weight_to_fp16"), val = tensor<fp16, [768, 768]>(BLOBFILE(path = tensor<string, []>("@model_path/weights/weight.bin"), offset = tensor<uint64, []>(146797312)))];
            tensor<fp16, [768]> model_vision_model_encoder_layers_10_self_attn_out_proj_bias_to_fp16 = const()[name = tensor<string, []>("model_vision_model_encoder_layers_10_self_attn_out_proj_bias_to_fp16"), val = tensor<fp16, [768]>(BLOBFILE(path = tensor<string, []>("@model_path/weights/weight.bin"), offset = tensor<uint64, []>(147977024)))];
            tensor<fp16, [1, 196, 768]> linear_63_cast_fp16 = linear(bias = model_vision_model_encoder_layers_10_self_attn_out_proj_bias_to_fp16, weight = model_vision_model_encoder_layers_10_self_attn_out_proj_weight_to_fp16, x = var_670_cast_fp16)[name = tensor<string, []>("linear_63_cast_fp16")];
            tensor<fp16, [1, 196, 768]> input_129_cast_fp16 = add(x = input_125_cast_fp16, y = linear_63_cast_fp16)[name = tensor<string, []>("input_129_cast_fp16")];
            tensor<int32, [1]> input_131_axes_0 = const()[name = tensor<string, []>("input_131_axes_0"), val = tensor<int32, [1]>([-1])];
            tensor<fp16, [768]> model_vision_model_encoder_layers_10_layer_norm2_weight_to_fp16 = const()[name = tensor<string, []>("model_vision_model_encoder_layers_10_layer_norm2_weight_to_fp16"), val = tensor<fp16, [768]>(BLOBFILE(path = tensor<string, []>("@model_path/weights/weight.bin"), offset = tensor<uint64, []>(147978624)))];
            tensor<fp16, [768]> model_vision_model_encoder_layers_10_layer_norm2_bias_to_fp16 = const()[name = tensor<string, []>("model_vision_model_encoder_layers_10_layer_norm2_bias_to_fp16"), val = tensor<fp16, [768]>(BLOBFILE(path = tensor<string, []>("@model_path/weights/weight.bin"), offset = tensor<uint64, []>(147980224)))];
            tensor<fp16, [1, 196, 768]> input_131_cast_fp16 = layer_norm(axes = input_131_axes_0, beta = model_vision_model_encoder_layers_10_layer_norm2_bias_to_fp16, epsilon = var_12_to_fp16, gamma = model_vision_model_encoder_layers_10_layer_norm2_weight_to_fp16, x = input_129_cast_fp16)[name = tensor<string, []>("input_131_cast_fp16")];
            tensor<fp16, [3072, 768]> model_vision_model_encoder_layers_10_mlp_fc1_weight_to_fp16 = const()[name = tensor<string, []>("model_vision_model_encoder_layers_10_mlp_fc1_weight_to_fp16"), val = tensor<fp16, [3072, 768]>(BLOBFILE(path = tensor<string, []>("@model_path/weights/weight.bin"), offset = tensor<uint64, []>(147981824)))];
            tensor<fp16, [3072]> model_vision_model_encoder_layers_10_mlp_fc1_bias_to_fp16 = const()[name = tensor<string, []>("model_vision_model_encoder_layers_10_mlp_fc1_bias_to_fp16"), val = tensor<fp16, [3072]>(BLOBFILE(path = tensor<string, []>("@model_path/weights/weight.bin"), offset = tensor<uint64, []>(152700480)))];
            tensor<fp16, [1, 196, 3072]> linear_64_cast_fp16 = linear(bias = model_vision_model_encoder_layers_10_mlp_fc1_bias_to_fp16, weight = model_vision_model_encoder_layers_10_mlp_fc1_weight_to_fp16, x = input_131_cast_fp16)[name = tensor<string, []>("linear_64_cast_fp16")];
            tensor<string, []> input_135_mode_0 = const()[name = tensor<string, []>("input_135_mode_0"), val = tensor<string, []>("TANH_APPROXIMATION")];
            tensor<fp16, [1, 196, 3072]> input_135_cast_fp16 = gelu(mode = input_135_mode_0, x = linear_64_cast_fp16)[name = tensor<string, []>("input_135_cast_fp16")];
            tensor<fp16, [768, 3072]> model_vision_model_encoder_layers_10_mlp_fc2_weight_to_fp16 = const()[name = tensor<string, []>("model_vision_model_encoder_layers_10_mlp_fc2_weight_to_fp16"), val = tensor<fp16, [768, 3072]>(BLOBFILE(path = tensor<string, []>("@model_path/weights/weight.bin"), offset = tensor<uint64, []>(152706688)))];
            tensor<fp16, [768]> model_vision_model_encoder_layers_10_mlp_fc2_bias_to_fp16 = const()[name = tensor<string, []>("model_vision_model_encoder_layers_10_mlp_fc2_bias_to_fp16"), val = tensor<fp16, [768]>(BLOBFILE(path = tensor<string, []>("@model_path/weights/weight.bin"), offset = tensor<uint64, []>(157425344)))];
            tensor<fp16, [1, 196, 768]> linear_65_cast_fp16 = linear(bias = model_vision_model_encoder_layers_10_mlp_fc2_bias_to_fp16, weight = model_vision_model_encoder_layers_10_mlp_fc2_weight_to_fp16, x = input_135_cast_fp16)[name = tensor<string, []>("linear_65_cast_fp16")];
            tensor<fp16, [1, 196, 768]> input_137_cast_fp16 = add(x = input_129_cast_fp16, y = linear_65_cast_fp16)[name = tensor<string, []>("input_137_cast_fp16")];
            tensor<int32, [1]> hidden_states_67_axes_0 = const()[name = tensor<string, []>("hidden_states_67_axes_0"), val = tensor<int32, [1]>([-1])];
            tensor<fp16, [768]> model_vision_model_encoder_layers_11_layer_norm1_weight_to_fp16 = const()[name = tensor<string, []>("model_vision_model_encoder_layers_11_layer_norm1_weight_to_fp16"), val = tensor<fp16, [768]>(BLOBFILE(path = tensor<string, []>("@model_path/weights/weight.bin"), offset = tensor<uint64, []>(157426944)))];
            tensor<fp16, [768]> model_vision_model_encoder_layers_11_layer_norm1_bias_to_fp16 = const()[name = tensor<string, []>("model_vision_model_encoder_layers_11_layer_norm1_bias_to_fp16"), val = tensor<fp16, [768]>(BLOBFILE(path = tensor<string, []>("@model_path/weights/weight.bin"), offset = tensor<uint64, []>(157428544)))];
            tensor<fp16, [1, 196, 768]> hidden_states_67_cast_fp16 = layer_norm(axes = hidden_states_67_axes_0, beta = model_vision_model_encoder_layers_11_layer_norm1_bias_to_fp16, epsilon = var_12_to_fp16, gamma = model_vision_model_encoder_layers_11_layer_norm1_weight_to_fp16, x = input_137_cast_fp16)[name = tensor<string, []>("hidden_states_67_cast_fp16")];
            tensor<fp16, [768, 768]> model_vision_model_encoder_layers_11_self_attn_q_proj_weight_to_fp16 = const()[name = tensor<string, []>("model_vision_model_encoder_layers_11_self_attn_q_proj_weight_to_fp16"), val = tensor<fp16, [768, 768]>(BLOBFILE(path = tensor<string, []>("@model_path/weights/weight.bin"), offset = tensor<uint64, []>(157430144)))];
            tensor<fp16, [768]> model_vision_model_encoder_layers_11_self_attn_q_proj_bias_to_fp16 = const()[name = tensor<string, []>("model_vision_model_encoder_layers_11_self_attn_q_proj_bias_to_fp16"), val = tensor<fp16, [768]>(BLOBFILE(path = tensor<string, []>("@model_path/weights/weight.bin"), offset = tensor<uint64, []>(158609856)))];
            tensor<fp16, [1, 196, 768]> linear_66_cast_fp16 = linear(bias = model_vision_model_encoder_layers_11_self_attn_q_proj_bias_to_fp16, weight = model_vision_model_encoder_layers_11_self_attn_q_proj_weight_to_fp16, x = hidden_states_67_cast_fp16)[name = tensor<string, []>("linear_66_cast_fp16")];
            tensor<fp16, [768, 768]> model_vision_model_encoder_layers_11_self_attn_k_proj_weight_to_fp16 = const()[name = tensor<string, []>("model_vision_model_encoder_layers_11_self_attn_k_proj_weight_to_fp16"), val = tensor<fp16, [768, 768]>(BLOBFILE(path = tensor<string, []>("@model_path/weights/weight.bin"), offset = tensor<uint64, []>(158611456)))];
            tensor<fp16, [768]> model_vision_model_encoder_layers_11_self_attn_k_proj_bias_to_fp16 = const()[name = tensor<string, []>("model_vision_model_encoder_layers_11_self_attn_k_proj_bias_to_fp16"), val = tensor<fp16, [768]>(BLOBFILE(path = tensor<string, []>("@model_path/weights/weight.bin"), offset = tensor<uint64, []>(159791168)))];
            tensor<fp16, [1, 196, 768]> linear_67_cast_fp16 = linear(bias = model_vision_model_encoder_layers_11_self_attn_k_proj_bias_to_fp16, weight = model_vision_model_encoder_layers_11_self_attn_k_proj_weight_to_fp16, x = hidden_states_67_cast_fp16)[name = tensor<string, []>("linear_67_cast_fp16")];
            tensor<fp16, [768, 768]> model_vision_model_encoder_layers_11_self_attn_v_proj_weight_to_fp16 = const()[name = tensor<string, []>("model_vision_model_encoder_layers_11_self_attn_v_proj_weight_to_fp16"), val = tensor<fp16, [768, 768]>(BLOBFILE(path = tensor<string, []>("@model_path/weights/weight.bin"), offset = tensor<uint64, []>(159792768)))];
            tensor<fp16, [768]> model_vision_model_encoder_layers_11_self_attn_v_proj_bias_to_fp16 = const()[name = tensor<string, []>("model_vision_model_encoder_layers_11_self_attn_v_proj_bias_to_fp16"), val = tensor<fp16, [768]>(BLOBFILE(path = tensor<string, []>("@model_path/weights/weight.bin"), offset = tensor<uint64, []>(160972480)))];
            tensor<fp16, [1, 196, 768]> linear_68_cast_fp16 = linear(bias = model_vision_model_encoder_layers_11_self_attn_v_proj_bias_to_fp16, weight = model_vision_model_encoder_layers_11_self_attn_v_proj_weight_to_fp16, x = hidden_states_67_cast_fp16)[name = tensor<string, []>("linear_68_cast_fp16")];
            tensor<int32, [4]> var_714 = const()[name = tensor<string, []>("op_714"), val = tensor<int32, [4]>([1, 196, 12, 64])];
            tensor<fp16, [1, 196, 12, 64]> var_715_cast_fp16 = reshape(shape = var_714, x = linear_66_cast_fp16)[name = tensor<string, []>("op_715_cast_fp16")];
            tensor<int32, [4]> var_717 = const()[name = tensor<string, []>("op_717"), val = tensor<int32, [4]>([1, 196, 12, 64])];
            tensor<fp16, [1, 196, 12, 64]> var_718_cast_fp16 = reshape(shape = var_717, x = linear_67_cast_fp16)[name = tensor<string, []>("op_718_cast_fp16")];
            tensor<int32, [4]> var_720 = const()[name = tensor<string, []>("op_720"), val = tensor<int32, [4]>([1, 196, 12, 64])];
            tensor<fp16, [1, 196, 12, 64]> var_721_cast_fp16 = reshape(shape = var_720, x = linear_68_cast_fp16)[name = tensor<string, []>("op_721_cast_fp16")];
            tensor<int32, [4]> value_perm_0 = const()[name = tensor<string, []>("value_perm_0"), val = tensor<int32, [4]>([0, 2, 1, 3])];
            tensor<fp16, [1, 196, 12, 64]> mul_11_cast_fp16 = mul(x = var_715_cast_fp16, y = var_14_to_fp16)[name = tensor<string, []>("mul_11_cast_fp16")];
            tensor<bool, []> matmul_11_transpose_y_0 = const()[name = tensor<string, []>("matmul_11_transpose_y_0"), val = tensor<bool, []>(true)];
            tensor<bool, []> matmul_11_transpose_x_0 = const()[name = tensor<string, []>("matmul_11_transpose_x_0"), val = tensor<bool, []>(false)];
            tensor<int32, [4]> transpose_70_perm_0 = const()[name = tensor<string, []>("transpose_70_perm_0"), val = tensor<int32, [4]>([0, 2, -3, -1])];
            tensor<int32, [4]> transpose_71_perm_0 = const()[name = tensor<string, []>("transpose_71_perm_0"), val = tensor<int32, [4]>([0, 2, -3, -1])];
            tensor<fp16, [1, 12, 196, 64]> transpose_71 = transpose(perm = transpose_71_perm_0, x = var_718_cast_fp16)[name = tensor<string, []>("transpose_73")];
            tensor<fp16, [1, 12, 196, 64]> transpose_70 = transpose(perm = transpose_70_perm_0, x = mul_11_cast_fp16)[name = tensor<string, []>("transpose_74")];
            tensor<fp16, [1, 12, 196, 196]> matmul_11_cast_fp16 = matmul(transpose_x = matmul_11_transpose_x_0, transpose_y = matmul_11_transpose_y_0, x = transpose_70, y = transpose_71)[name = tensor<string, []>("matmul_11_cast_fp16")];
            tensor<int32, []> softmax_11_axis_0 = const()[name = tensor<string, []>("softmax_11_axis_0"), val = tensor<int32, []>(-1)];
            tensor<fp16, [1, 12, 196, 196]> softmax_11_cast_fp16 = softmax(axis = softmax_11_axis_0, x = matmul_11_cast_fp16)[name = tensor<string, []>("softmax_11_cast_fp16")];
            tensor<bool, []> attn_output_45_transpose_x_0 = const()[name = tensor<string, []>("attn_output_45_transpose_x_0"), val = tensor<bool, []>(false)];
            tensor<bool, []> attn_output_45_transpose_y_0 = const()[name = tensor<string, []>("attn_output_45_transpose_y_0"), val = tensor<bool, []>(false)];
            tensor<fp16, [1, 12, 196, 64]> value_cast_fp16 = transpose(perm = value_perm_0, x = var_721_cast_fp16)[name = tensor<string, []>("transpose_75")];
            tensor<fp16, [1, 12, 196, 64]> attn_output_45_cast_fp16 = matmul(transpose_x = attn_output_45_transpose_x_0, transpose_y = attn_output_45_transpose_y_0, x = softmax_11_cast_fp16, y = value_cast_fp16)[name = tensor<string, []>("attn_output_45_cast_fp16")];
            tensor<int32, [4]> var_724_perm_0 = const()[name = tensor<string, []>("op_724_perm_0"), val = tensor<int32, [4]>([0, 2, 1, 3])];
            tensor<int32, [3]> var_726 = const()[name = tensor<string, []>("op_726"), val = tensor<int32, [3]>([1, 196, 768])];
            tensor<fp16, [1, 196, 12, 64]> var_724_cast_fp16 = transpose(perm = var_724_perm_0, x = attn_output_45_cast_fp16)[name = tensor<string, []>("transpose_72")];
            tensor<fp16, [1, 196, 768]> var_727_cast_fp16 = reshape(shape = var_726, x = var_724_cast_fp16)[name = tensor<string, []>("op_727_cast_fp16")];
            tensor<fp16, [768, 768]> model_vision_model_encoder_layers_11_self_attn_out_proj_weight_to_fp16 = const()[name = tensor<string, []>("model_vision_model_encoder_layers_11_self_attn_out_proj_weight_to_fp16"), val = tensor<fp16, [768, 768]>(BLOBFILE(path = tensor<string, []>("@model_path/weights/weight.bin"), offset = tensor<uint64, []>(160974080)))];
            tensor<fp16, [768]> model_vision_model_encoder_layers_11_self_attn_out_proj_bias_to_fp16 = const()[name = tensor<string, []>("model_vision_model_encoder_layers_11_self_attn_out_proj_bias_to_fp16"), val = tensor<fp16, [768]>(BLOBFILE(path = tensor<string, []>("@model_path/weights/weight.bin"), offset = tensor<uint64, []>(162153792)))];
            tensor<fp16, [1, 196, 768]> linear_69_cast_fp16 = linear(bias = model_vision_model_encoder_layers_11_self_attn_out_proj_bias_to_fp16, weight = model_vision_model_encoder_layers_11_self_attn_out_proj_weight_to_fp16, x = var_727_cast_fp16)[name = tensor<string, []>("linear_69_cast_fp16")];
            tensor<fp16, [1, 196, 768]> input_141_cast_fp16 = add(x = input_137_cast_fp16, y = linear_69_cast_fp16)[name = tensor<string, []>("input_141_cast_fp16")];
            tensor<int32, [1]> input_143_axes_0 = const()[name = tensor<string, []>("input_143_axes_0"), val = tensor<int32, [1]>([-1])];
            tensor<fp16, [768]> model_vision_model_encoder_layers_11_layer_norm2_weight_to_fp16 = const()[name = tensor<string, []>("model_vision_model_encoder_layers_11_layer_norm2_weight_to_fp16"), val = tensor<fp16, [768]>(BLOBFILE(path = tensor<string, []>("@model_path/weights/weight.bin"), offset = tensor<uint64, []>(162155392)))];
            tensor<fp16, [768]> model_vision_model_encoder_layers_11_layer_norm2_bias_to_fp16 = const()[name = tensor<string, []>("model_vision_model_encoder_layers_11_layer_norm2_bias_to_fp16"), val = tensor<fp16, [768]>(BLOBFILE(path = tensor<string, []>("@model_path/weights/weight.bin"), offset = tensor<uint64, []>(162156992)))];
            tensor<fp16, [1, 196, 768]> input_143_cast_fp16 = layer_norm(axes = input_143_axes_0, beta = model_vision_model_encoder_layers_11_layer_norm2_bias_to_fp16, epsilon = var_12_to_fp16, gamma = model_vision_model_encoder_layers_11_layer_norm2_weight_to_fp16, x = input_141_cast_fp16)[name = tensor<string, []>("input_143_cast_fp16")];
            tensor<fp16, [3072, 768]> model_vision_model_encoder_layers_11_mlp_fc1_weight_to_fp16 = const()[name = tensor<string, []>("model_vision_model_encoder_layers_11_mlp_fc1_weight_to_fp16"), val = tensor<fp16, [3072, 768]>(BLOBFILE(path = tensor<string, []>("@model_path/weights/weight.bin"), offset = tensor<uint64, []>(162158592)))];
            tensor<fp16, [3072]> model_vision_model_encoder_layers_11_mlp_fc1_bias_to_fp16 = const()[name = tensor<string, []>("model_vision_model_encoder_layers_11_mlp_fc1_bias_to_fp16"), val = tensor<fp16, [3072]>(BLOBFILE(path = tensor<string, []>("@model_path/weights/weight.bin"), offset = tensor<uint64, []>(166877248)))];
            tensor<fp16, [1, 196, 3072]> linear_70_cast_fp16 = linear(bias = model_vision_model_encoder_layers_11_mlp_fc1_bias_to_fp16, weight = model_vision_model_encoder_layers_11_mlp_fc1_weight_to_fp16, x = input_143_cast_fp16)[name = tensor<string, []>("linear_70_cast_fp16")];
            tensor<string, []> input_147_mode_0 = const()[name = tensor<string, []>("input_147_mode_0"), val = tensor<string, []>("TANH_APPROXIMATION")];
            tensor<fp16, [1, 196, 3072]> input_147_cast_fp16 = gelu(mode = input_147_mode_0, x = linear_70_cast_fp16)[name = tensor<string, []>("input_147_cast_fp16")];
            tensor<fp16, [768, 3072]> model_vision_model_encoder_layers_11_mlp_fc2_weight_to_fp16 = const()[name = tensor<string, []>("model_vision_model_encoder_layers_11_mlp_fc2_weight_to_fp16"), val = tensor<fp16, [768, 3072]>(BLOBFILE(path = tensor<string, []>("@model_path/weights/weight.bin"), offset = tensor<uint64, []>(166883456)))];
            tensor<fp16, [768]> model_vision_model_encoder_layers_11_mlp_fc2_bias_to_fp16 = const()[name = tensor<string, []>("model_vision_model_encoder_layers_11_mlp_fc2_bias_to_fp16"), val = tensor<fp16, [768]>(BLOBFILE(path = tensor<string, []>("@model_path/weights/weight.bin"), offset = tensor<uint64, []>(171602112)))];
            tensor<fp16, [1, 196, 768]> linear_71_cast_fp16 = linear(bias = model_vision_model_encoder_layers_11_mlp_fc2_bias_to_fp16, weight = model_vision_model_encoder_layers_11_mlp_fc2_weight_to_fp16, x = input_147_cast_fp16)[name = tensor<string, []>("linear_71_cast_fp16")];
            tensor<fp16, [1, 196, 768]> input_149_cast_fp16 = add(x = input_141_cast_fp16, y = linear_71_cast_fp16)[name = tensor<string, []>("input_149_cast_fp16")];
            tensor<int32, [1]> hidden_state_1_axes_0 = const()[name = tensor<string, []>("hidden_state_1_axes_0"), val = tensor<int32, [1]>([-1])];
            tensor<fp16, [768]> model_vision_model_post_layernorm_weight_to_fp16 = const()[name = tensor<string, []>("model_vision_model_post_layernorm_weight_to_fp16"), val = tensor<fp16, [768]>(BLOBFILE(path = tensor<string, []>("@model_path/weights/weight.bin"), offset = tensor<uint64, []>(171603712)))];
            tensor<fp16, [768]> model_vision_model_post_layernorm_bias_to_fp16 = const()[name = tensor<string, []>("model_vision_model_post_layernorm_bias_to_fp16"), val = tensor<fp16, [768]>(BLOBFILE(path = tensor<string, []>("@model_path/weights/weight.bin"), offset = tensor<uint64, []>(171605312)))];
            tensor<fp16, [1, 196, 768]> hidden_state_1_cast_fp16 = layer_norm(axes = hidden_state_1_axes_0, beta = model_vision_model_post_layernorm_bias_to_fp16, epsilon = var_12_to_fp16, gamma = model_vision_model_post_layernorm_weight_to_fp16, x = input_149_cast_fp16)[name = tensor<string, []>("hidden_state_1_cast_fp16")];
            tensor<int32, [1]> input_161_axes_0 = const()[name = tensor<string, []>("input_161_axes_0"), val = tensor<int32, [1]>([1])];
            tensor<bool, []> input_161_keep_dims_0 = const()[name = tensor<string, []>("input_161_keep_dims_0"), val = tensor<bool, []>(false)];
            tensor<fp16, [1, 768]> input_161_cast_fp16 = reduce_mean(axes = input_161_axes_0, keep_dims = input_161_keep_dims_0, x = hidden_state_1_cast_fp16)[name = tensor<string, []>("input_161_cast_fp16")];
            tensor<fp16, [2, 768]> model_classifier_weight_to_fp16 = const()[name = tensor<string, []>("model_classifier_weight_to_fp16"), val = tensor<fp16, [2, 768]>(BLOBFILE(path = tensor<string, []>("@model_path/weights/weight.bin"), offset = tensor<uint64, []>(171606912)))];
            tensor<fp16, [2]> model_classifier_bias_to_fp16 = const()[name = tensor<string, []>("model_classifier_bias_to_fp16"), val = tensor<fp16, [2]>([0x1.d6p-16, -0x1.d6p-16])];
            tensor<fp16, [1, 2]> linear_72_cast_fp16 = linear(bias = model_classifier_bias_to_fp16, weight = model_classifier_weight_to_fp16, x = input_161_cast_fp16)[name = tensor<string, []>("linear_72_cast_fp16")];
            tensor<int32, []> var_756 = const()[name = tensor<string, []>("op_756"), val = tensor<int32, []>(-1)];
            tensor<fp16, [1, 2]> probabilities = softmax(axis = var_756, x = linear_72_cast_fp16)[name = tensor<string, []>("op_758_cast_fp16")];
        } -> (probabilities);
}